models/best_lstm.pt (torch, 890138 bytes, 14 tensors)

lstm.weight_ih_l0 f4 [512, 6]
0.044976566 0.09086676 -0.03391876 0.075736634 -0.007924161 0.028099546 -0.04764317 0.054495163
0.09278659 -0.08342929 0.06728665 0.012285207 0.07563163 0.016187996 0.061572835 -0.012783656
0.09264144 0.014552982 -0.07468243 0.011687306 -0.030897757 -0.013815307 -0.03537002 0.056508772
-0.03742996 -0.0062384084 -0.030396286 0.014235376 0.05408937 -0.037082978 0.0828012 -0.07562549
0.05762463 0.011586133 0.013190662 0.008602961 0.01914516 0.045459058 -0.016253078 -0.033179168
0.026122078 -0.035213903 0.04224942 0.06574471 0.06298657 -0.03389855 0.058441985 0.00016775807
0.06395223 -0.060577277 -0.09276991 -0.04752322 -0.05326093 0.07031788 -0.0011300214 0.116885714
0.10879335 0.010299946 0.0935853 -0.0039693005 -0.026456377 -0.0024310593 0.0044589746 -0.004647636
0.038894825 -0.032425184 0.10568127 -0.023120623 -0.03118194 -0.025065592 0.13914184 0.03370413
0.04167309 -0.059671193 -0.10573657 -0.0840305 -0.075154535 0.030786885 0.02111763 0.07561866
-0.0565647 -0.07659227 0.04154212 -0.043030366 0.12663543 0.032673582 0.069207124 0.0073625227
-0.06142552 0.104944445 -0.009245484 -0.028368495 0.04026614 0.047795992 -0.074711226 -0.06327695
0.055199817 -0.0013705794 -0.010830086 -0.07840421 -0.03002911 0.026589708 -0.0073401 -0.08424312
-0.04296454 -0.037126023 -0.06750422 -0.039146245 -0.06097269 -0.072073914 0.051748157 0.009798894
0.009799203 -0.08444864 -0.05704593 -0.03996592 0.023580272 -0.08348256 -0.011804756 -0.06877424
0.007839908 -0.048016913 -0.014690803 -0.05420731 -0.052190736 -0.05529982 -0.046193436 -0.06677609
0.07662739 -0.039157838 0.058215003 0.018607687 -0.032281697 0.12756653 0.024210462 0.048013516
-0.0792362 0.031389125 0.03947366 -0.018772842 0.018180462 -0.084199116 0.09729176 -0.09719967
0.06361986 0.086027876 0.14708182 0.1301645 0.16680087 -0.029303262 0.038980193 -0.025788993
-0.08142127 -0.029193284 0.093874134 -0.037417583 0.08177585 0.032715764 0.05141749 -0.048418093
0.12646307 0.033253714 0.0361926 -0.07311794 0.03998855 0.011323967 0.008814341 0.08978591
0.02232964 -0.04546899 -0.03732898 -0.0031830186 0.04377536 -0.030531466 -0.04608186 -0.025334572
-0.098263636 0.04185919 0.08916933 -0.07987705 0.10191871 0.120427795 0.03325537 0.065143965
0.11403351 0.16015103 0.014000242 -0.014025891 -0.013942639 0.006060838 -0.010350773 -0.017627295
0.11408284 0.09837021 0.03748084 0.020311384 0.03183851 0.04376152 0.03796553 0.07871344
-0.08699371 0.071269475 0.067922875 0.08170189 0.0179036 -0.040669244 -0.060792286 -0.05035044
-0.0056094723 0.02249486 0.08048431 0.03787251 -0.053613916 -0.051290423 -0.013080762 0.092052795
-0.008283552 -0.027847689 0.03730931 -0.0463154 -0.07348728 0.07688195 -0.02801845 -0.011923767
-0.020704554 0.06842338 0.080801405 0.07072056 -0.044304237 -0.0998784 -0.098575175 0.075221986
0.06419524 0.050466113 0.1696411 0.108656056 0.0930147 0.045055173 -0.0018623741 0.025383065
0.022752348 -0.04095719 0.08214744 -0.052787777 0.079690345 -0.05589608 -0.041254148 0.015807098
-0.03568278 0.059805464 0.004246175 -0.08890428 -0.016602794 -0.036600936 -0.0051940563 -0.087788306
00000000: 5939 383d 5a18 ba3d 66ee 0abd cf1b 9b3d
00000010: 57d4 01bc 0531 e63c 7c25 43bd 5236 5f3d
00000020: e506 be3d fadc aabd 95cd 893d e547 493c
00000030: c2e4 9a3d b09c 843c cc33 7c3d 8a72 51bc
00000040: ccba bd3d a16f 6e3c 1af3 98bd 1d7c 3f3c
00000050: 4b1d fdbc 9959 62bc 27e0 10bd be75 673d
00000060: 2850 19bd 906b ccbb a201 f9bc 7f3b 693c
00000070: d18c 5d3d 52e4 17bd ad93 a93d 89e1 9abd
00000080: ce07 6c3d c4d3 3d3c a51d 583c 6ff3 0c3c
00000090: 50d6 9c3c 4733 3a3d 2d25 85bc e1e6 07bd
000000a0: f8fd d53c 743c 10bd ba0d 2d3d 2aa5 863d
000000b0: 1aff 803d 35d9 0abd dd60 6f3d 37e8 2f39
000000c0: 63f9 823d e11f 78bd 27fe bdbd b5a7 42bd
000000d0: 2228 5abd d202 903d 3a1d 94ba c761 ef3d
000000e0: 0ccf de3d 1bc1 283c a6a9 bf3d e810 82bb
000000f0: 0bbb d8bc 6852 1fbb 971c 923b 324b 98bb
00000100: 2e50 1f3d 45d0 04bd 6c6f d83d 7667 bdbc
00000110: 4571 ffbc 5b56 cdbc 337b 0e3e 580d 0a3d
00000120: 67b1 2a3d c869 74bd 6a8c d8bd 2f18 acbd
00000130: 9fea 99bd c734 fc3c e1fe ac3c f5dd 9a3d
00000140: 63b0 67bd 68dc 9cbd 1228 2a3d 9c40 30bd
00000150: b8ac 013e bcd4 053d 77bc 8d3d 5141 f13b
00000160: 5399 7bbd 1ded d63d 5f7a 17bc 0c65 e8bc
00000170: 1cee 243d bbc5 433d 3302 99bd 5897 81bd
00000180: 3419 623d 03a5 b3ba ac70 31bc 6392 a0bd
00000190: 9cff f5bc a9d2 d93c 3985 f0bb a887 acbd
000001a0: 96fb 2fbd 7511 18bd a73f 8abd d057 20bd
000001b0: 80be 79bd 7d9b 93bd e0f5 533d 8a8b 203c
000001c0: d68c 203c 69f3 acbd fea8 69bd 4eb3 23bd
000001d0: 6a2b c13c e8f8 aabd bc68 41bc 82d9 8cbd
000001e0: f572 003c 62ad 44bd b2b1 70bc 7c08 5ebd
000001f0: f4c5 55bd 1082 62bd 5435 3dbd e7c1 88bd
00000200: d2ee 9c3d f863 20bd db72 6e3d 266f 983c
00000210: d039 04bd cda0 023e 0555 c63c d2a9 443d
00000220: 9746 a2bd e291 003d 22af 213d 81c9 99bc
00000230: 31ef 943c 9670 acbd e740 c73d 9f10 c7bd
00000240: 214b 823d 622f b03d 9e9c 163e d849 053e
00000250: d9cd 2a3e 650d f0bc b2a9 1f3d 7043 d3bc
00000260: 32c0 a6bd c126 efbc 1541 c03d 2e43 19bd
00000270: 197a a73d f700 063d 259b 523d 0d52 46bd
00000280: 897f 013e 0c35 083d b13e 143d dcbe 95bd
00000290: 09cb 233d 2988 393c 076a 103c ade1 b73d
000002a0: a6ec b63c b13d 3abd 46e6 18bd 319a 50bb
000002b0: cb4d 333d 201d fabc 55c0 3cbd 738a cfbc
000002c0: 723e c9bd 8b74 2b3d 699e b63d 9496 a3bd
000002d0: c2ba d03d d9a2 f63d c836 083d 336a 853d
000002e0: 678a e93d a2fe 233e 4561 653c dacc 65bc
000002f0: ab6f 64bc fe99 c63b 4a96 29bc 1e67 90bc
00000300: 44a4 e93d 5276 c93d 8285 193d 0f64 a63c
00000310: 1969 023d 483f 333d be81 1b3d 8334 a13d
00000320: c229 b2bd bbf5 913d 261b 8b3d 5253 a73d
00000330: 92aa 923c cb94 26bd 5501 79bd 433c 4ebd
00000340: aacf b7bb 2447 b83c f5d4 a43d 3420 1b3d
00000350: 449a 5bbd e815 52bd b150 56bc 2d86 bc3d
00000360: bcb7 07bc d620 e4bc a6d1 183d 38b5 3dbd
00000370: 8080 96bd 4974 9d3d f386 e5bc e75b 43bc
00000380: 999c a9bc 8f21 8c3d 357b a53d f1d5 903d
00000390: 5c78 35bd 0c8d ccbd c8e1 c9bd fc0d 9a3d
000003a0: cb78 833d 8eb5 4e3d 66b6 2d3e 1187 de3d
000003b0: 7e7e be3d c68b 383d e81a f4ba 25f0 cf3c
000003c0: 2263 ba3c bac2 27bd eb3c a83d ff37 58bd
000003d0: b134 a33d 4af3 64bd 1cfa 28bd e37d 813c
000003e0: 1b28 12bd 93f6 743d 7f23 8b3b 7213 b6bd
000003f0: 9502 88bc ddea 15bd e732 aabb 5bca b3bd

lstm.weight_hh_l0 f4 [512, 128]
-0.028281454 0.015926022 -0.009903672 -0.09575409 -0.024702836 0.07935225 -0.01456744 -0.03974896
0.011656406 0.051788688 -0.014146705 -0.056149684 -0.04400689 -0.020059116 0.038113434 0.070747495
0.01586676 0.02811868 0.04917772 -0.038351752 -0.043839395 0.06548732 0.05796523 0.021573303
-0.06324897 0.051229678 -0.0576474 0.045402724 0.0073751304 0.030252375 -0.079609714 -0.03153195
0.023553852 0.07617302 -0.009482149 0.097601905 -0.006661911 -0.0706283 -0.035959803 -0.0071490007
0.0004998364 0.05726377 -0.04551799 -0.021080887 -0.09230746 0.10315168 -0.010647615 -0.03535859
-0.017983228 0.0035681746 0.026767673 -0.020813726 0.052767072 -0.0143885445 -0.057567343 -0.016526386
0.017870976 0.073598936 -0.011541604 0.074120544 0.06146564 -0.03950708 0.0003398184 -0.03892371
0.02862777 -0.049250565 0.042691335 -0.0121506 -0.043575082 -0.051349953 -0.06438722 -0.042748827
0.037811104 0.022625057 0.06689969 -0.072727524 -0.027912974 -0.053635776 -0.015518365 0.034049425
-0.0888278 0.057842955 -0.06363586 0.07669116 -0.0069982074 0.04776842 0.06395304 -0.043858968
-0.019212238 0.08042769 -0.0770118 0.03356903 -0.075591125 0.06275841 -0.07458973 -0.010207071
0.06506296 -0.03497452 0.08232995 0.04843129 0.075635485 -0.08583022 0.0042909193 -0.029349612
0.008292565 -0.026484942 0.057427954 0.0025927164 -0.048918072 -0.050204482 0.012150359 -0.028918996
0.06292381 0.044026133 0.022435913 0.0053808107 -0.013070515 -0.018256862 -0.08545501 0.10675104
-0.05150135 0.038355973 -0.03119655 0.045639537 0.07610553 -0.08075593 0.07184743 -0.020428438
-0.06353975 0.030259384 0.053276505 0.088029124 -0.05165804 0.07403239 0.058971636 0.09148461
0.049200736 -0.049772937 0.05376452 0.078370355 -0.041357864 -0.007990388 0.07133838 0.07740654
0.050330732 0.06144815 -0.038113024 -0.009331706 -0.04485083 0.039686847 0.025097761 -0.071730666
-0.017033227 -0.08878778 -0.08422847 0.06364453 -0.04561511 0.028997757 -0.006877686 -0.018780084
-0.008929572 0.08372385 -0.016280757 0.07097567 0.04534186 0.07367192 -0.07521023 -0.056509126
-0.07176736 -0.008995494 -0.011073318 0.026703678 0.0638213 0.04033816 -0.069279976 -0.06602431
0.07298893 0.017048726 0.021710364 -0.061694168 -0.016924128 0.023312423 -0.063107654 0.055035997
0.037391942 -0.045481198 -0.026502997 -0.022148054 0.01154306 -0.034544215 0.08878374 -0.07671121
-0.053234406 -0.059264664 0.025055328 0.046180062 -0.023149572 0.07883641 -0.08312876 0.02252521
-0.037579834 -0.02605149 -0.0944419 -0.058261666 -0.065484196 0.023898624 -0.026447708 0.053318363
-0.05922651 -0.01860945 0.035339586 0.061636105 -0.051142596 0.053676493 0.009878233 0.053930677
0.05431195 0.021193596 -0.034194294 -0.034430612 0.040718615 0.04937218 0.007217997 0.062920235
-0.05568538 0.04397368 -0.006682415 -0.066495955 -0.034881927 -0.073515594 0.025377844 -0.057011634
-0.012553037 -0.032693878 -0.080329336 0.012235536 -0.004440301 -0.0007932241 0.059188765 -0.06887411
0.041878134 -0.007859499 -0.038449466 -0.039633736 0.02901999 0.007018221 0.0028901931 -0.05985159
0.051188067 0.020414334 -0.08833682 -0.020854259 -0.026868265 -0.046771985 -0.046023097 -0.08432795
00000000: 82ae e7bc 4a77 823c 0343 22bc b81a c4bd
00000010: 9a5d cabc 6f83 a23d 46ac 6ebc cecf 22bd
00000020: 83fa 3e3c 6020 543d 95c7 67bc 36fd 65bd
00000030: 9240 34bd 0453 a4bc d51c 1c3d 10e4 903d
00000040: 02fb 813c 2559 e63c 946e 493d ba16 1dbd
00000050: f090 33bd 371e 863d f36c 6d3d 7fba b03c
00000060: ad88 81bd 36d6 513d ae1f 6cbd 35f8 393d
00000070: 14ab f13b d4d3 f73c 6b0a a3bd a527 01bd
00000080: 02f4 c03c 9a00 9c3d 045b 1bbc 82e3 c73d
00000090: 294c dabb 92a5 90bd 964a 13bd 2a42 eabb
000000a0: 7407 033a 6a8d 6a3d 1271 3abd d3b1 acbc
000000b0: b20b bdbd 3041 d33d 5673 2ebc 2bd4 10bd
000000c0: 9051 93bc 09d8 693b e147 db3c 8c81 aabc
000000d0: 4922 583d eebd 6bbc bccb 6bbd 5862 87bc
000000e0: 2766 923c 0abb 963d ff18 3dbc 83cc 973d
000000f0: 65c3 7b3d 2dd2 21bd a729 b239 786e 1fbd
00000100: c984 ea3c f6ba 49bd 1cdd 2e3d 4f13 47bc
00000110: c97b 32bd 5454 52bd 72dd 83bd 6519 2fbd
00000120: d1df 1a3d 2f58 b93c b402 893d 2bf2 94bd
00000130: c0a9 e4bc 30b1 5bbd be40 7ebc 6977 0b3d
00000140: 59eb b5bd bcec 6c3d 8553 82bd 4110 9d3d
00000150: 3851 e5bb d2a8 433d d0f9 823d 76a5 33bd
00000160: fc62 9dbc 46b7 a43d 5db8 9dbd ae7f 093d
00000170: 85cf 9abd 7b87 803d 80c2 98bd 8f3b 27bc
00000180: bb3f 853d 7141 0fbd 9b9c a83d e35f 463d
00000190: c7e6 9a3d c1c7 afbd d79a 8c3b 996e f0bc
000001a0: 8add 073c f3f6 d8bc 9339 6b3d 90ea 293b
000001b0: 515e 48bd 37a3 4dbd 4d12 473c 88e7 ecbc
000001c0: 33de 803d bf54 343d 85cb b73c 8351 b03b
000001d0: b725 56bc 6a8f 95bc 0903 afbd 4aa0 da3d
000001e0: 14f3 52bd 271b 1d3d e88f ffbc 86f0 3a3d
000001f0: 37dd 9b3d 5d63 a5bd bf24 933d 8a59 a7bc
00000200: 2121 82bd 87e2 f73c 7738 5a3d 9d48 b43d
00000210: 6297 53bd 4b9e 973d 3e8c 713d 495c bb3d
00000220: b686 493d b5de 4bbd 2f38 5c3d a380 a03d
00000230: dd66 29bd 1eea 02bc db19 923d 5287 9e3d
00000240: 9927 4e3d 0eb1 7b3d 671c 1cbd 03e4 18bc
00000250: 81b5 37bd ad8e 223d d299 cd3c 87e7 92bd
00000260: 4489 8bbc 5ed6 b5bd fa7f acbd 1058 823d
00000270: e9d6 3abd b48c ed3c 365e e1bb b1d8 99bc
00000280: 574d 12bc 6977 ab3d 395f 85bc b15b 913d
00000290: 63b8 393d 4ee1 963d d207 9abd 1d76 67bd
000002a0: c4fa 92bd d661 13bc dd6c 35bc acc1 da3c
000002b0: beb4 823d a039 253d a9e2 8dbd c137 87bd
000002c0: 387b 953d c5a9 8b3c efd9 b13c 06b3 7cbd
000002d0: 78a4 8abc b2f9 be3c 963e 81bd 6d6d 613d
000002e0: 4b28 193d 7e4a 3abd d01c d9bc d66f b5bc
000002f0: 1a1f 3d3c 3c7e 0dbd 40d4 b53d c41a 9dbd
00000300: 520c 5abd 81bf 72bd d540 cd3c 4e27 3d3d
00000310: 2ca4 bdbc fc74 a13d 693f aabd ca86 b83c
00000320: 50ed 19bd ef69 d5bc c16a c1bd c9a3 6ebd
00000330: 941c 86bd 0cc7 c33c dda8 d8bc 5b64 5a3d
00000340: 7f97 72bd d872 98bc 3ec0 103d 2476 7c3d
00000350: e67a 51bd e2db 5b3d 50d8 213c 6ae6 5c3d
00000360: 3576 5e3d 319e ad3c 510f 0cbd 1d07 0dbd
00000370: 90c8 263d 7c3a 4a3d f384 ec3b 53dc 803d
00000380: 5a16 64bd bf1d 343d 29f8 dabb 082f 88bd
00000390: 5ae0 0ebd 588f 96bd 32e5 cf3c 0885 69bd
000003a0: 41ab 4dbc 04ea 05bd b583 a4bd 8f77 483c
000003b0: f27f 91bb 5ef0 4fba eb6f 723d df0d 8dbd
000003c0: 6888 2b3d 21c5 00bc 307d 1dbd fc56 22bd
000003d0: 54bb ed3c 1bf9 e53b 6569 3d3b f126 75bd
000003e0: 94aa 513d f63b a73c efe9 b4bd 8dd6 aabc
000003f0: d61a dcbc fb93 3fbd b782 3cbd 22b4 acbd

lstm.bias_ih_l0 f4 [512]
-0.05442061 -0.06844599 0.060752664 -0.04031953 0.0407694 0.07552666 0.06897446 0.07501917
-0.067024246 0.04716424 0.0020973808 0.025463577 0.07637215 0.04224002 -0.014862243 0.074162826
0.09729312 -0.06502601 -0.08252562 0.06578614 -0.030088982 -0.08445351 0.1052373 -0.0032073471
0.12640736 -0.04275611 0.089076236 -0.006776768 -0.055902638 0.034599014 0.0059443605 -0.07707525
0.021724058 0.058548674 -0.011682394 5.2082407e-05 -0.09138318 0.08893492 -0.009636789 0.118524574
0.06741208 0.050131824 0.07336602 0.049161606 0.035399213 0.02692261 0.0584922 -0.007714233
0.03642916 0.07132392 -0.06083738 0.0369641 -0.041981805 0.002889953 -0.017457163 -0.06953022
0.061772406 0.03822167 -0.052790146 0.014988929 0.081774995 0.07654538 -0.08597731 0.046612695
0.031099964 0.030744513 0.0542993 0.0884431 -0.033739787 0.08852149 0.033848777 0.014506614
0.037879456 -0.06477207 -0.049701616 -0.0868827 0.014718823 0.070649624 -0.041448493 0.021261023
-0.015924307 -0.019848648 -0.058771994 0.05091113 0.029241428 0.035655905 0.11165677 -0.080039166
-0.00034765367 0.015285635 0.0365153 0.09654565 0.08593398 0.00650565 0.04446563 -0.009206809
-0.07875955 -0.104505785 0.028544243 0.014174212 -0.07063169 0.005991587 -0.066436216 0.048251703
0.07824338 0.0350543 0.06117544 0.044533715 0.056145526 -0.05494597 0.13469253 -0.073933795
-0.06807132 -0.06605265 -0.050068207 0.018846279 -0.01752 0.018456507 -0.0059498977 -0.033985727
0.009988575 -0.03882913 0.058986995 0.079720974 0.010528041 0.07371643 -0.05584858 0.048388135
0.07486158 0.0092799375 0.015887948 -0.003129646 -0.07181338 -0.032388493 -0.065722466 0.06711369
-0.058839895 -0.06941151 -0.008302959 -0.026256079 -0.02273113 0.07933885 0.038957693 0.053681903
-0.00725554 -0.03636322 -0.0784258 -0.0037134837 0.05660586 -0.066904284 -0.053138 0.05621707
-0.04293485 0.02676565 0.06420764 0.05452773 -0.061456267 -0.008425494 0.046710193 0.06520465
0.0330575 -0.112843975 0.037914164 -0.02476996 0.070131496 -0.051118877 0.07845289 0.042936232
-0.0053782733 -0.042947285 -0.079754815 -0.018472143 -0.036415666 -0.059836917 -0.08627281 0.020958561
0.037333958 0.0023869767 0.007829398 0.042247776 0.014286779 -0.04493992 0.024724843 -0.021673
-0.039671723 -0.03797327 0.04353079 -0.07458738 -0.09565486 0.017313806 -0.08320396 0.019217305
-0.01821523 -0.0006660467 -0.043247197 0.057662934 -0.020142823 -0.039936688 0.04979685 -0.006588823
0.05982192 0.051605135 -0.007583154 -0.036397863 0.022712164 0.09440921 -0.022320481 0.020477248
-0.06297358 0.042588923 -0.02171789 -0.07132839 -0.019064736 0.03055006 -0.038659498 -0.0511628
-0.023419052 0.038998626 -0.07533642 -0.118513025 -0.041805353 -0.09071479 0.09143309 0.032065768
0.0146136675 0.011653454 -0.005596992 -0.03858481 0.015769076 -0.10589127 0.004774368 -0.08969568
-0.016320355 -0.048265006 0.03325867 0.07039006 0.044207595 0.0835605 0.0054337215 -0.075424336
0.049620964 0.08050685 -0.018011564 -0.0002486457 -0.036150783 0.04064328 0.0074945767 0.062157672
0.029558139 -0.09658204 0.03339988 -0.036776543 -0.036640484 -0.10440883 -0.07145799 0.06554001
00000000: 25e8 5ebd 692d 8cbd c9d7 783d 1726 25bd
00000010: d0fd 263d b9ad 9a3d 7b42 8d3d a7a3 993d
00000020: 0244 89bd 4a2f 413d 3674 093b fe98 d03c
00000030: 0069 9c3d df03 2d3d c480 73bc aee2 973d
00000040: 9e41 c73d 5b2c 85bd 3103 a9bd e2ba 863d
00000050: 2b7d f6bc f6f5 acbd a786 d73d 5b32 52bb
00000060: ee70 013e 0821 2fbd 9a6d b63d a60f debb
00000070: 2afa 64bd b2b7 0d3d e9c8 c23b a1d9 9dbd
00000080: a7f6 b13c bcd0 6f3d 8367 3fbc 0f73 5a38
00000090: 1b27 bbbd 8323 b63d 9fe3 1dbc 03bd f23d
000000a0: 580f 8a3d 0757 4d3d ed40 963d ae5d 493d
000000b0: c4fe 103d ce8c dc3c 8495 6f3d adc7 fcbb
000000c0: be36 153d 4612 923d 9e30 79bd ab67 173d
000000d0: 1df5 2bbd 5e65 3d3b 5302 8fbc dc65 8ebd
000000e0: 1005 7d3d 538e 1c3d 7b3a 58bd 2094 753c
000000f0: a679 a73d d3c3 9c3d df14 b0bd f4ec 3e3d
00000100: 5ac5 fe3c ebdb fb3c f168 5e3d a821 b53d
00000110: bb32 0abd c14a b53d 04a5 0a3d 26ad 6d3c
00000120: 7d27 1b3d 38a7 84bd ec93 4bbd 8fef b1bd
00000130: 3827 713c c0b0 903d e5c5 29bd 992b ae3c
00000140: b173 82bc a299 a2bc e7ba 70bd 3088 503d
00000150: b88b ef3c ed0b 123d 4eac e43d 93eb a3bd
00000160: 4945 b6b9 9a70 7a3c 1191 153d bab9 c53d
00000170: 28fe af3d 592d d53b 9821 363d 28d8 16bc
00000180: b04c a1bd 2107 d6bd 9ed5 e93c f43a 683c
00000190: 59a7 90bd 1355 c43b b60f 88bd 94a3 453d
000001a0: 113e a03d 1995 0f3d 1993 7a3d fc68 363d
000001b0: daf8 653d 070f 61bd d7ec 093e 9a6a 97bd
000001c0: fa68 8bbd 9d46 87bd 5214 4dbd 8363 9a3c
000001d0: 1a86 8fbc 1a32 973c 5cf7 c2bb 9e34 0bbd
000001e0: 1fa7 233c 4b0b 1fbd 599c 713d c044 a33d
000001f0: ce7d 2c3c a4f8 963d 7bc1 64bd a332 463d
00000200: 0751 993d e10a 183c 7127 823c bf1a 4dbb
00000210: e512 93bd cca9 04bd 8099 86bd e772 893d
00000220: 1a02 71bd 9f27 8ebd 2209 08bc fd16 d7bc
00000230: a236 babc 687c a23d 1a92 1f3d 8ee1 5b3d
00000240: e2bf edbb 9af1 14bd b59d a0bd eb5d 73bb
00000250: 8cdb 673d 1d05 89bd 3ba7 59bd df43 663d
00000260: 74dc 2fbd a343 db3c 4c7f 833d 7858 5f3d
00000270: 91b9 7bbd 150b 0abc 3053 3f3d 048a 853d
00000280: 4d67 073d be1a e7bd e24b 1b3d 5fea cabc
00000290: 1aa1 8f3d 0762 51bd e9ab a03d e7dd 2f3d
000002a0: 3a3c b0bb 7ee9 2fbd 7e56 a3bd e452 97bc
000002b0: 9828 15bd 8e17 75bd cdaf b0bd 4ab1 ab3c
000002c0: 7eeb 183d d36e 1c3b e046 003c 010c 2d3d
000002d0: 1813 6a3c ec12 38bd c18b ca3c 938b b1bc
000002e0: d17e 22bd dc89 1bbd 574d 323d 45c1 98bd
000002f0: b2e6 c3bd afd5 8d3c d666 aabd 9c6d 9d3c
00000300: 1b38 95bc a399 2eba f923 31bd f82f 6c3d
00000310: 9002 a5bc a794 23bd c8f7 4b3d 0ee7 d7bb
00000320: d407 753d e85f 533d 1b7c f8bb ed15 15bd
00000330: dc0e ba3c 9e59 c13d 71d9 b6bc e7bf a73c
00000340: 4bf8 80bd b971 2e3d b7e9 b1bc 9e14 92bd
00000350: a62d 9cbc 1f44 fa3c 6c59 1ebd 1690 51bd
00000360: 50d9 bfbc 06bd 1f3d fb49 9abd f5b6 f2bd
00000370: 173c 2bbd adc8 b9bd 4641 bb3d 6557 033d
00000380: 2a6e 6f3c 21ee 3e3c f966 b7bb 1b0b 1ebd
00000390: 262e 813c 86dd d8bd 4d72 9c3b 5eb2 b7bd
000003a0: 44b2 85bc 87b1 45bd 3e3a 083d aa28 903d
000003b0: 0613 353d c421 ab3d 5c0d b23b 1378 9abd
000003c0: 5a3f 4b3d c6e0 a43d fd8c 93bc a95c 82b9
000003d0: d812 14bd 9179 263d 1195 f53b 0b99 7e3d
000003e0: e923 f23c cecc c5bd 50ce 083d 00a3 16bd
000003f0: 5514 16bd 4cd4 d5bd 9158 92bd d739 863d

lstm.bias_hh_l0 f4 [512]
-0.061834425 -0.008438702 0.0003245373 -0.07418574 -0.030832963 -0.06533093 -0.08680088 -0.07413428
0.044182993 -0.008574438 0.08990447 -0.047209933 -0.027722953 -0.020468958 0.13540721 0.028111786
0.029506365 -0.03564178 0.035019636 -0.07212998 0.016958172 0.04105897 0.09352351 0.038276862
0.05262682 0.0909745 0.012259662 0.0649607 0.0027092332 0.013701641 0.010665338 0.05005593
-0.046790574 0.013084036 0.033819705 0.036455 -0.057576504 -0.006868207 -0.037949394 0.01799679
-0.063709706 0.028778147 0.005160835 -0.023373129 0.051834717 0.10987487 -0.08021619 -0.0007799454
0.0053632143 -0.03258571 0.059142184 -0.010565232 0.060475096 0.05683813 -0.06364569 -0.08058913
0.13833082 -0.038189396 0.07623618 0.030775677 0.008850116 0.07572229 -0.02349271 -0.00030831355
-0.04191322 -0.0029961788 0.079032175 0.09792328 -0.028255103 -0.019532036 0.11628448 0.07680343
-0.007604116 0.0036477991 -0.07151023 -0.076799326 0.0045428495 -0.044134255 0.030517928 0.0667428
-0.036788568 -0.048426125 -0.079591975 0.011260769 -0.00016894352 0.085191116 0.07295072 0.05864981
0.08134593 0.046671566 -0.07042637 0.0030538281 -0.05820773 -0.038395796 -0.06106769 0.053670984
-0.060286213 -0.01553722 0.061812278 0.06782788 0.047998376 -0.005536461 -0.011649982 0.017857602
0.09526758 0.08349983 -0.0393557 -0.035406806 0.00060485787 -0.011355522 0.096184745 -0.066886835
0.052767795 -0.035838034 0.04052201 0.043722037 0.002873338 -0.055388518 -0.07223196 -0.0296858
0.04342516 0.04630815 0.022627037 0.037191235 0.054537054 0.09804729 -0.05504316 0.033741873
-0.018706074 0.0269804 0.057948917 0.026240658 -0.0347406 0.047585934 0.061890833 -0.013326114
0.059762564 -0.05650031 0.013942608 0.0031792447 -0.015651563 -0.032627255 0.07851945 -0.03174867
-0.050441425 -0.047676332 -0.051933702 0.032922316 0.06994309 0.012530354 -0.03427453 -0.014223921
-0.014565972 -0.10230376 -0.029173445 0.06723821 -0.009929939 -0.076977305 -0.09716683 -0.013914831
-0.056493383 -0.10683171 -0.039516386 0.070711076 0.042326752 -0.028476832 0.06765333 0.039097603
0.02587839 0.03010479 -0.037608337 0.058999296 -0.06513937 -0.12563261 -0.08412285 -0.057061236
-0.023714302 -0.043925107 -0.07332367 0.038913343 0.0027381394 0.050612476 -0.0023864494 0.0017797395
0.02434466 -0.03190852 -0.004217581 -0.023533776 -0.065903224 -0.009569084 0.03909025 -0.045118313
0.054480616 0.0432477 -0.034650583 -0.06418462 0.06473011 0.05117519 -0.036589414 -0.007105495
-0.0030783296 -0.06849719 -0.036422532 -0.04003081 0.08004495 0.090055496 -0.031441893 0.026640639
-0.027310895 0.0475902 0.04389531 0.0069388594 0.060244866 -0.05926414 0.002045199 -0.076182
-0.07866505 0.00951661 0.026112493 0.020433221 -0.044433624 -0.006397779 -0.023109086 0.06424243
0.053822543 0.016237294 -0.06723985 0.046308793 0.0064989817 0.0050595566 0.0110036675 -0.0042266366
0.07727546 0.079458624 0.07805167 -0.028402027 0.054020602 0.10510965 -0.072862945 -0.027370915
-0.08927664 0.093851835 -0.023066457 -0.024454204 -0.05546292 0.070461996 -0.021685995 -0.022529863
-0.03421906 -0.001282044 -0.041763842 0.03492615 -0.09804372 -0.0019521212 -0.05636871 0.023061873
00000000: 1846 7dbd 7b42 0abc a926 aa39 b1ee 97bd
00000010: 6995 fcbc 39cc 85bd a9c4 b1bd b7d3 97bd
00000020: 3af9 343d cd7b 0cbc d61f b83d 345f 41bd
00000030: 3f1b e3bc 84ae a7bc 30a8 0a3e b04a e63c
00000040: 55b7 f13c 1dfd 11bd c070 0f3d e2b8 93bd
00000050: ddeb 8a3c 732d 283d 4189 bf3d 33c8 1c3d
00000060: 388f 573d d750 ba3d c0dc 483c 1e0a 853d
00000070: 648d 313b d97c 603c abbd 2e3c 7207 4d3d
00000080: 79a7 3fbd 6d5e 563c 8886 0a3d d751 153d
00000090: 57d5 6bbd b20e e1bb d370 1bbd 016e 933c
000000a0: 3c7a 82bd 26c0 eb3c 391c a93b 0179 bfbc
000000b0: a450 543d 1306 e13d 6348 a4bd 4075 4cba
000000c0: e7bd af3b 9878 05bd 133f 723d cb19 2dbc
000000d0: bcb4 773d 19cf 683d ac58 82bd ea0b a5bd
000000e0: 98a6 0d3e 7c6c 1cbd b721 9c3d 461d fc3c
000000f0: 1400 113c 4a14 9b3d c973 c0bc 25a5 a1b9
00000100: 32ad 2bbd 8a5b 44bb 9fdb a13d 008c c83d
00000110: 3f77 e7bc a601 a0bc 8f26 ee3d 1e4b 9d3d
00000120: f32b f9bb ea0f 6f3b f573 92bd f748 9dbd
00000130: 2fdc 943b 1fc6 34bd bc00 fa3c 73b0 883d
00000140: 9caf 16bd 795a 46bd 1e01 a3bd 177f 383c
00000150: 6e26 31b9 ae78 ae3d 3067 953d c83a 703d
00000160: b298 a63d af2a 3f3d b33b 90bd bc22 483b
00000170: 3b6b 6ebd e944 1dbd 1d22 7abd 1bd6 5b3d
00000180: adee 76bd d38f 7ebc df2e 7d3d 58e9 8a3d
00000190: f299 443d 336b b5bb 91df 3ebc 1b4a 923c
000001a0: a61b c33d f501 ab3d 7133 21bd ba06 11bd
000001b0: 538f 1e3a 830c 3abc 82fc c43d f7fb 88bd
000001c0: 0b23 583d e7ca 12bd 68fa 253d e115 333d
000001d0: 9d4e 3c3b 12df 62bd 5aee 93bd a32f f3bc
000001e0: 95de 313d 9dad 3d3d 565c b93c d655 183d
000001f0: 3f62 5f3d 05cd c83d f074 61bd eb34 0a3d
00000200: 7b3d 99bc 0006 dd3c d85b 6d3d a6f6 d63c
00000210: 294c 0ebd 78e9 423d 3e81 7d3d c655 5abc
00000220: 97c9 743d de6c 67bd 896f 643c e05a 503b
00000230: b537 80bc 28a4 05bd cece a03d e50a 02bd
00000240: ab9b 4ebd 4248 43bd 6fb8 54bd 8dd9 063d
00000250: 533e 8f3d 1d4c 4d3c 7363 0cbd 730b 69bc
00000260: 1da6 6ebc a284 d1bd 26fd eebc 30b4 893d
00000270: 2fb1 22bc 47a6 9dbd 67ff c6bd 08fb 63bc
00000280: 9b65 67bd 95ca dabd efdb 21bd f8d0 903d
00000290: d15e 2d3d 3f48 e9bc d48d 8a3d cf24 203d
000002a0: ebfe d33c 529e f63c 330b 1abd 3fa9 713d
000002b0: ca67 85bd d6a5 00be 9a48 acbd 0bb9 69bd
000002c0: 7f44 c2bc d0ea 33bd b82a 96bd 9963 1f3d
000002d0: 5b72 333b 074f 4f3d fa65 1cbb 2646 e93a
000002e0: 746e c73c 82b2 02bd a233 8abb e8c9 c0bc
000002f0: 45f8 86bd a6c7 1cbc 191d 203d fbcd 38bd
00000300: 1127 5f3d 8024 313d c5ed 0dbd 3a73 83bd
00000310: 3891 843d 139d 513d c8de 15bd 36d5 e8bb
00000320: cdbd 49bb 4148 8cbd cb2f 15bd 59f7 23bd
00000330: 9bee a33d 046f b83d 37c9 00bd 783d da3c
00000340: 19bb dfbc f1ed 423d 92cb 333d 5f5f e33b
00000350: 52c3 763d f4be 72bd bf08 063b 4f05 9cbd
00000360: 241b a1bd 8eeb 1b3c dee9 d53c 9263 a73c
00000370: 0800 36bd 76a4 d1bb 444f bdbc 8991 833d
00000380: 0775 5c3d 1304 853c 0cb5 89bd 4aae 3d3d
00000390: 69f5 d43b a3ca a53b ba48 343c 997f 8abb
000003a0: 9942 9e3d 34bb a23d 8ed9 9f3d 5eab e8bc
000003b0: b544 5d3d ba43 d73d 2b39 95bd f838 e0bc
000003c0: acd6 b6bd 6435 c03d def5 bcbc 2f54 c8bc
000003d0: 162d 63bd 614e 903d d4a6 b1bc 8c90 b8bc
000003e0: 4929 0cbd 420a a8ba 9010 2bbd b90e 0f3d
000003f0: 25cb c8bd 51de ffba e0e2 66bd 41ec bc3c

lstm.weight_ih_l1 f4 [512, 128]
-0.01213796 0.054193407 -0.018252328 -0.04683023 -0.03757363 -0.015762517 -0.023142876 -0.06996717
-0.00917451 -0.20140688 -0.0456012 0.039340366 0.047111887 0.07138062 -0.040811382 -0.04645242
0.024881795 -0.03376841 -0.023613904 -0.074729785 0.022813484 0.035041 0.0571144 0.03520348
-0.08263404 0.10567059 -0.013103034 0.055725444 -0.037806924 0.08257996 -0.04497444 0.01027818
0.089837365 -0.021164207 -0.034127876 -0.104087666 -0.058720924 0.075605094 0.05982851 0.036601894
-0.12754735 -0.041789334 -0.014773415 0.02748361 0.06450804 -0.118036136 -0.09028231 -0.1240476
0.13107665 -0.010675628 -0.00014163795 0.057041336 0.10273866 -0.034298584 0.15992193 0.05994295
-0.00058265903 0.06774399 -0.04731003 -0.05649351 0.03480004 -0.11112326 -0.056231353 -0.05458365
-0.023657637 0.13049185 0.00079879997 0.0885509 -0.00077246386 0.058712978 -0.03986752 0.02546226
0.021950008 0.089509234 1.5258557e-05 -0.08148442 0.1163934 -0.024211468 0.026804816 0.033547398
0.059551317 -0.02438651 0.091923386 -0.073323995 -0.015947277 -0.034073718 0.1092265 -0.047959857
-0.007081788 -0.08678664 -0.044111133 0.063800335 -0.025526915 0.013570429 -0.04086732 -0.1154498
-0.09453363 0.028466279 -0.066889115 0.017232688 0.0048373244 -0.07974011 -0.11496414 0.020736625
-0.063662075 -0.08095556 -0.053052034 -0.0599343 0.009981526 -0.06925897 0.120334335 0.056502055
-0.03418086 -0.022688558 0.05468865 -0.10243173 0.05256357 -0.03957958 -0.06735052 -0.08592445
-0.008007829 -0.057630986 0.0061317785 0.047159005 0.0598748 0.15091935 -0.057195447 0.11719551
0.041794445 0.03587624 0.0005144511 -0.025666961 -0.042335395 0.061246686 0.05677866 0.028360797
0.033169135 0.09479348 -0.08862299 -0.056253187 -0.014316097 0.04378041 0.08270831 0.08706975
0.015559014 0.0381202 0.09006254 0.04793271 -0.0174866 -0.040728495 -0.0230051 0.0835897
-0.085728355 0.0026950464 0.018493244 -0.03155634 -0.057291314 -0.07776094 0.0017940953 -0.06011025
0.027703203 -0.05275223 -0.031467836 -0.0036799249 0.037081547 0.07692923 0.08359149 -0.010648963
-0.10231333 -0.006854538 0.02034126 0.042171337 0.06228291 -0.07282527 -0.02802441 0.071521305
0.05974261 -0.027339593 0.03232758 0.04387404 -0.0069488767 -0.0041239173 -0.0008692106 -0.044070393
-0.09030249 0.040955905 0.029502945 -0.05248921 0.0144278165 -0.012339458 0.084943816 -0.0321331
0.06307965 0.026916731 0.0149294585 0.040152706 0.017244566 0.055908374 -0.04737725 -0.031005725
-0.016188415 0.021134472 -0.05395771 0.057204917 -0.032020245 0.068099596 0.033354033 -0.07911386
0.00091305375 0.016842978 -0.038343173 0.006433017 0.0051130955 -0.064495645 -0.089484625 -0.014334836
0.029712372 -0.047795247 -0.055259496 -0.052960068 0.018642394 -0.039990466 -0.03518443 0.03367931
-0.011375632 -0.018881932 0.06894324 -0.07589874 -0.003860953 -0.014286964 0.038882356 -0.056979463
0.0016326677 -0.077077314 0.05813566 0.028322289 -0.009232161 -0.08644011 0.05496073 0.050243706
0.05683435 -0.053092644 0.007462413 -0.032319535 -0.047309928 -0.09928225 0.059080962 -0.025336137
0.0515441 -0.013675757 -0.008606683 -0.0050632944 -0.072034284 -0.08796473 0.03695248 -0.027017238
00000000: 4bde 46bc e8f9 5d3d e885 95bc 0ed1 3fbd
00000010: cfe6 19bd 6520 81bc 2196 bdbc f34a 8fbd
00000020: af50 16bc 9b3d 4ebe 53c8 3abd 5d23 213d
00000030: 65f8 403d 0130 923d d629 27bd e544 3ebd
00000040: e8d4 cb3c bf50 0abd f271 c1bc ee0b 99bd
00000050: 58e3 ba3c 2787 0f3d caf0 693d 8631 103d
00000060: 093c a9bd d369 d83d 1cae 56bc 5d40 643d
00000070: 6fdb 1abd af1f a93d 1e37 38bd d065 283c
00000080: a7fc b73d 8f60 adbc acc9 0bbd ea2b d5bd
00000090: 5a85 70bd d8d6 9a3d bd0e 753d deeb 153d
000000a0: c69b 02be 4b2b 2bbd 320c 72bc 4f25 e13c
000000b0: cb1c 843d eebc f1bd efe5 b8bd ab0c febd
000000c0: f538 063e d4e8 2ebc a684 14b9 2da4 693d
000000d0: a668 d23d ac7c 0cbd 93c2 233e bd86 753d
000000e0: 96bd 18ba 5cbd 8a3d 29c8 41bd bd65 67bd
000000f0: 7d8a 0e3d 9794 e3bd d952 66bd 1b93 5fbd
00000100: a9cd c1bc a89f 053e 8f66 513a 2d5a b53d
00000110: 2c7f 4aba 057d 703d 204c 23bd 3b96 d03c
00000120: 81d0 b33c 9e50 b73d 01ff 7f37 4ee1 a6bd
00000130: aa5f ee3d 2157 c6bc c695 db3c ff68 093d
00000140: 15ec 733d 38c6 c7bc 5442 bc3d e42a 96bd
00000150: dda3 82bc e290 0bbd 25b2 df3d 8e71 44bd
00000160: 580e e8bb 32bd b1bd e0ad 34bd c0a9 823d
00000170: d21d d1bc 8156 5e3c 7e64 27bd f270 ecbd
00000180: d99a c1bd 1d32 e93c 29fd 88bd 912b 8d3c
00000190: 6b82 9e3b c84e a3bd 5272 ebbd dbdf a93c
000001a0: 4361 82bd 07cc a5bd 174d 59bd ab7d 75bd
000001b0: 8e89 233c a6d7 8dbd d971 f63d b36e 673d
000001c0: 3b01 0cbd 5bdd b9bc 3501 603d bac7 d1bd
000001d0: e64c 573d 331e 22bd 12ef 89bd 28f9 afbd
000001e0: 4533 03bc 780e 6cbd 16ed c83b cd29 413d
000001f0: 473f 753d 9a8a 1a3e c645 6abd 3304 f03d
00000200: a730 2b3d f7f2 123d 3bdc 063a 8543 d2bc
00000210: e167 2dbd cedd 7a3d bd90 683d e754 e83c
00000220: 5cdc 073d 1623 c23d f87f b5bd be69 66bd
00000230: 108e 6abc 1653 333d f962 a93d a051 b23d
00000240: 3ceb 7e3c ed23 1c3d b572 b83d 1755 443d
00000250: 0f40 8fbc ecd2 26bd 3175 bcbc 1431 ab3d
00000260: 5992 afbd 609f 303b 257f 973c 3941 01bd
00000270: 4caa 6abd 2141 9fbd d927 eb3a 2a36 76bd
00000280: d4f1 e23c b912 58bd 6be4 00bd e52a 71bb
00000290: d2e2 173d 128d 9d3d 0432 ab3d fd78 2ebc
000002a0: a789 d1bd 089c e0bb b7a2 a63c dabb 2c3d
000002b0: 5d1c 7f3d 6a25 95bd 7393 e5bc c379 923d
000002c0: abb4 743d 48f7 dfbc ed69 043d 44b5 333d
000002d0: 67b3 e3bb ed21 87bb bcdb 63ba 2883 34bd
000002e0: 83f0 b8bd 61c1 273d 29b0 f13c edfe 56bd
000002f0: a662 6c3c 702b 4abc 06f7 ad3d ff9d 03bd
00000300: e72f 813d 7a80 dc3c b09a 743c 2a77 243d
00000310: 7a44 8d3c 2e00 653d a60e 42bd b8ff fdbc
00000320: 919d 84bc 3322 ad3c c202 5dbd b44f 6a3d
00000330: a927 03bd cd77 8b3d 3d9e 083d 7306 a2bd
00000340: 005a 6f3a 49fa 893c bb0d 1dbd 0fcc d23b
00000350: c18b a73b 4b16 84bd b743 b7bd a9dc 6abc
00000360: 5c67 f33c f3c4 43bd c857 62bd a8ec 58bd
00000370: efb7 983c 0bcd 23bd 8d1d 10bd 51f3 093d
00000380: dc60 3abc 48ae 9abc 1d32 8d3d cc70 9bbd
00000390: 0b08 7dbb df13 6abc 1b43 1f3d 4c63 69bd
000003a0: 3dff d53a b6da 9dbd a81f 6e3d 2504 e83c
000003b0: 7d42 17bc 8307 b1bd 811e 613d 58cc 4d3d
000003c0: 23cb 683d ac77 59bd 4287 f43b 7d61 04bd
000003d0: 0ec8 41bd 7e54 cbbd e1fe 713d bb8d cfbc
000003e0: e81f 533d 4810 60bc 0c03 0dbc fee9 a5bb
000003f0: b686 93bd da26 b4bd 7c5b 173d 4153 ddbc

lstm.weight_hh_l1 f4 [512, 128]
0.09919361 -0.1231018 0.060716204 -0.008864037 0.13929728 -0.04383857 0.10428 0.04615262
-0.07033477 0.09131672 0.034484487 -0.025279362 0.07104465 -0.05451819 -0.07414089 0.0940005
-0.045151804 0.09954906 -0.031902842 0.012373631 0.055377938 0.048534576 -0.04961752 -0.0202049
-0.17037782 0.024711069 -0.07137844 -0.006259229 0.1373419 0.054076254 0.051276732 0.010350826
-0.0828005 -0.11898761 -0.15500648 -0.034356937 -0.07847918 0.06275333 -0.061582096 -0.056621905
0.11141669 -0.003891686 0.05916222 -0.058866527 -0.048359998 0.04473573 -0.008139871 0.039631944
0.032236688 -0.0047480315 0.08928666 -0.04738878 -0.06796806 -0.080439925 -0.07872767 0.03761888
-0.013203954 0.06727086 -0.004395966 0.035668254 -0.07626166 -0.076291434 0.049871013 -0.055518772
-0.06529516 -0.1436605 0.08887366 0.071532436 -0.01808249 0.105286345 0.072835416 -0.056582797
0.032328848 -0.02605642 -0.10515444 0.012470306 0.08250592 0.019730328 0.123744346 0.039672513
0.03639195 -0.00048126833 0.067363605 -0.0044486704 0.095755205 -0.0069438247 -0.086416714 -0.0031404092
-0.13986732 -0.04577106 -0.0022408331 -0.025481965 -0.022109473 -0.027102653 0.045896687 0.0020243588
-0.07634012 0.09619215 0.026592532 0.028290253 0.029129444 0.1443975 0.05966759 0.11486447
0.029394697 -0.099356286 -0.07373538 -0.02959994 0.0007129847 -0.08299186 0.026544217 -0.038667146
-0.068962865 -0.030028615 -0.055465132 0.07621822 0.05234665 0.047368944 0.027497163 0.010570854
0.022982338 -0.16778518 -0.018411765 -0.016294157 -0.019655889 -0.041111425 -0.04017139 -0.04604248
-0.032807205 -0.041937504 0.093064986 0.065847315 -0.06767227 0.08844092 0.08566143 0.014319507
-0.031148335 0.07572307 0.06201955 -0.07265677 -0.006836878 -0.042335022 -0.07958161 0.06928069
0.023691086 -0.061670177 -0.06394372 0.041476827 0.08182955 0.06455106 -0.044287186 -0.07739125
0.018539403 -0.05413847 0.060201332 -0.03483547 -0.058606632 0.031143013 -0.053179674 -0.024705544
-0.03974286 0.07908818 0.08981909 0.02068631 0.033462655 -0.04279709 0.029370058 -0.0682478
0.056075785 0.045087226 -0.017939072 0.03208162 -0.056771956 0.09611723 -0.011874223 0.019115975
0.019139506 0.08092863 0.020467054 0.013397048 -0.07042113 -0.08190876 -0.0330999 0.029833008
0.09259197 -0.05862499 -0.021953493 0.07217197 0.009790666 -0.011513001 -0.02964434 -0.01881593
-0.07642592 -0.049984943 0.0028456121 0.07885997 0.07988397 0.06207854 0.026896225 -0.028554177
0.022068202 0.05050674 -0.013007486 0.046164464 -0.07263896 -0.0688336 -0.0140167875 -0.025253821
-0.085284576 0.024239346 -0.010848911 -0.077693485 0.07622958 0.026333647 0.033837814 0.088577315
-0.028401641 0.023096804 0.04506262 0.07586712 -0.0799014 -0.07310933 0.01999731 0.017157791
0.06461186 0.0033230248 -0.042440735 -0.044389926 -0.07503338 -0.08311962 -0.0009266124 0.015370394
-0.014768907 -0.026562836 0.07742756 -0.045150515 -0.0653134 -0.078036346 0.039585482 0.029697543
0.018620925 0.01136524 0.031367976 0.056686334 0.021165825 0.05393075 -0.062365867 -0.017704196
-0.003076621 0.014450452 -0.053035643 -0.02326794 -0.08194933 -0.015523936 -0.054826126 0.047167163
00000000: 0526 cb3d cc1c fcbd 8eb1 783d 773a 11bc
00000010: f2a3 0e3e 1390 33bd c190 d53d 880a 3d3d
00000020: ad0b 90bd 4304 bb3d 9b3f 0d3d aa16 cfbc
00000030: dc7f 913d 774e 5fbd 2ed7 97bd 5683 c03d
00000040: 19f1 38bd 61e0 cb3d 8eac 02bd c5ba 4a3c
00000050: fad3 623d 31cc 463d be3b 4bbd bf84 a5bc
00000060: 8677 2ebe de6e ca3c dc2e 92bd 381a cdbb
00000070: 5ba3 0c3e 107f 5d3d 8d07 523d 8396 293c
00000080: 4f93 a9bd c7af f3bd 05ba 1ebe dcb9 0cbd
00000090: b1b9 a0bd d184 803d 823d 7cbd 5fec 67bd
000000a0: 6f2e e43d a80b 7fbb 1654 723d 071e 71bd
000000b0: 2215 46bd d03c 373d 185d 05bc 1b55 223d
000000c0: 9e0a 043d 6095 9bbb eddb b63d bd1a 42bd
000000d0: d732 8bbd b0bd a4bd f93b a1bd 4116 1a3d
000000e0: 6655 58bc 4ec5 893d 090c 90bb e018 123d
000000f0: 132f 9cbd af3e 9cbd 8c45 4c3d a767 63bd
00000100: 78b9 85bd bd1b 13be 6503 b63d 997f 923d
00000110: bb21 94bc 5ea0 d73d bc2a 953d 5dc3 67bd
00000120: 416b 043d 4674 d5bc 365b d7bd 4150 4c3c
00000130: ddf8 a83d 7fa1 a13c ad6d fd3d a57f 223d
00000140: ba0f 153d be52 fcb9 eef5 893d 27c6 91bb
00000150: 4e1b c43d 0689 e3bb 3ffb b0bd 53cf 4dbb
00000160: 6139 0fbe 6f7a 3bbd f1da 12bb 8ebf d0bc
00000170: ed1e b5bc 6206 debc 2afe 3b3d 1bab 043b
00000180: 3558 9cbd 6400 c53d 95d8 d93c f6c0 e73c
00000190: dfa0 ee3c f0dc 133e 0166 743d 103e eb3d
000001a0: 26cd f03c 4f7b cbbd 9302 97bd 937b f2bc
000001b0: 98e7 3a3a a3f7 a9bd 4273 d93c 7161 1ebd
000001c0: 673c 8dbd 92fe f5bc 682f 63bd 4c18 9c3d
000001d0: 7169 563d f005 423d bb41 e13c 6031 2d3c
000001e0: 7545 bc3c e1cf 2bbe 45d4 96bc 537b 85bc
000001f0: 6305 a1bc 7464 28bd c18a 24bd 0a97 3cbd
00000200: d960 06bd a9c6 2bbd db98 be3d f5da 863d
00000210: c297 8abd 8320 b53d 436f af3d 5e9c 6a3c
00000220: cb2a ffbc b214 9b3d 3608 7e3d 13cd 94bd
00000230: e407 e0bb 7d67 2dbd affb a2bd 09e3 8d3d
00000240: cf13 c23c de99 7cbd edf4 82bd 9be3 293d
00000250: 4096 a73d 5933 843d 7b66 35bd 4e7f 9ebd
00000260: f2df 973c 4dc0 5dbd ac95 763d a3af 0ebd
00000270: 820d 70bd a21f ff3c eed2 59bd 4863 cabc
00000280: 69c9 22bd fcf8 a13d 12f3 b73d 5676 a93c
00000290: 2310 093d 004c 2fbd 7a99 f03c 81c5 8bbd
000002a0: b9af 653d 62ad 383d f6f4 92bc 0468 033d
000002b0: b689 68bd 1cd9 c43d 1a8c 42bc 1b99 9c3c
000002c0: 74ca 9c3c e9bd a53d 86aa a73c 4b7f 5b3c
000002d0: f438 90bd c8bf a7bd c393 07bd 5a64 f43c
000002e0: dca0 bd3d c220 70bd d0d7 b3bc e6ce 933d
000002f0: 0869 203c 07a1 3cbc b0d8 f2bc dd23 9abc
00000300: 3185 9cbd 03bd 4cbd 737d 3a3b 5681 a13d
00000310: 359a a33d 1146 7e3d 7955 dc3c 73ea e9bc
00000320: 60c8 b43c 28e0 4e3d 5a1d 55bc f316 3d3d
00000330: bcc3 94bd a1f8 8cbd aba6 65bc 1ae1 cebc
00000340: aea9 aebd 9891 c63c a1bf 31bc c31d 9fbd
00000350: 411e 9c3d a9b9 d73c 8599 0a3d 0668 b53d
00000360: 8faa e8bc 8235 bd3c 9593 383d 3860 9b3d
00000370: 58a3 a3bd 58ba 95bd 66d1 a33c 7f8e 8c3c
00000380: 3953 843d 1bc7 593b 56d6 2dbd 36d2 35bd
00000390: 1aab 99bd 9f3a aabd e8e7 72ba 1bd4 7b3c
000003a0: 49f9 71bc 4e9a d9bc 5792 9e3d bfef 38bd
000003b0: 08c3 85bd 85d1 9fbd 6324 223d 4348 f33c
000003c0: e98a 983c 4635 3a3c b57b 003d ee2f 683d
000003d0: f463 ad3c 7de6 5c3d 5a73 7fbd 6408 91bc
000003e0: 23a1 49bb 97c1 6c3c e73b 59bd 689c bebc
000003f0: 0dd5 a7bd 1b58 7ebc 5c91 60bd 5b32 413d

lstm.bias_ih_l1 f4 [512]
0.060347684 -0.03135954 0.047862772 0.005106832 -0.07178148 -0.044016685 -0.0557005 -0.10033765
-0.038111076 0.052523147 -0.08477943 -0.0243638 0.034071837 0.033106174 0.06458099 -0.046834044
-0.0071374504 0.0038550089 0.08401857 -0.046477977 0.049884327 0.07207569 0.037756443 0.021718163
-0.00083099946 0.017133765 0.024523381 0.06141206 -0.021125395 0.0006369504 0.058728024 -0.012300488
-0.06990316 0.039537873 -0.09602465 0.07257163 -0.03735758 0.083589755 -0.08091265 0.08389815
0.05218384 0.085387945 0.028063115 0.05304226 0.038555637 -0.08810266 0.09652295 0.06580337
-0.11170725 -0.006076722 -0.013129792 0.049336955 0.06728032 0.040250063 -0.057526663 0.08637464
-0.0018643341 0.05605154 0.04182778 -0.10156211 0.04151408 0.013656386 -0.036306262 -0.067571536
-0.0054115616 0.0024811998 -0.042493597 -0.0051816204 0.008049822 -0.014284379 0.016810039 -0.058895294
0.094154485 0.077134825 -0.061748378 -0.007829965 0.01920025 -0.01978674 -0.082688585 -0.06049992
-0.075258344 0.009971481 0.007314231 0.05145902 -0.06252119 0.048478063 -0.061713923 -0.09575613
0.07063837 0.028604757 0.048145458 -0.05377721 0.03762257 -0.060251225 0.047278915 -0.057575516
-0.1039738 0.09035149 -0.06314628 0.009679624 0.053344775 -0.05362548 -0.068010256 0.04754534
-0.019807288 -0.0658876 -0.038975805 -0.08035783 -0.025332725 -0.033859327 -0.0784632 -0.05665218
0.034154925 -0.06509826 -0.04575028 0.020883877 -0.05482221 -0.101345494 -0.024134073 0.013078664
0.07264653 0.02806768 0.087758 -0.044078626 -0.03593335 0.063128725 -0.05288736 0.050303362
0.026732065 -0.09392509 -0.02045309 0.051058013 0.05932734 -0.06736355 0.049310066 0.048977107
0.049312767 0.00431126 -0.0051545138 -0.022393482 -0.042549785 0.079359666 -0.042119756 -0.059115004
-0.05982188 -0.059224684 0.055591818 -0.08993137 -0.052916322 -0.02703636 -0.03630264 -0.021701586
0.032536812 0.014379151 -0.06589435 0.009801766 0.009314107 0.03200458 -0.00409048 -0.007833168
-0.058202483 -0.05085532 -0.00794872 -0.036908947 0.07647594 -0.10024039 -0.017877342 0.07833728
-0.036868904 0.022963986 -0.04556212 -0.06691997 -0.07905213 -0.009654325 0.09779854 0.016317505
-0.10757052 -0.065419294 0.07014076 -0.0699937 -0.010665314 0.03896259 -0.043479532 0.031915154
-0.03347027 -0.0818314 0.03533884 -0.06520793 0.08357976 0.06651059 0.05611858 -0.080298245
0.08713701 -0.0040256935 -0.043422744 -0.10399972 -0.06954497 0.027919335 0.08442759 -0.043345716
0.057215896 -0.063373804 -0.06551303 0.04971139 -0.041150656 0.0888268 0.034436014 0.020895654
-0.03514728 0.06998444 -0.07869228 0.07336969 0.0022470565 0.0221655 -0.011065853 -0.03552152
-0.02668761 0.004313033 -0.049112666 0.07644667 -0.031380083 -0.013480144 0.063341156 -0.039687615
-0.09048401 -0.024333863 0.03726996 0.07779368 -0.08785956 0.034087863 -0.01873147 0.06602141
0.07782752 -0.018159252 0.06548356 0.031536244 0.0021099388 -0.06691567 -0.08011722 -0.065412425
-0.05513386 0.008695252 -0.0641688 0.03445941 -0.055188626 -0.06294252 -0.031006632 0.0072339536
-0.04093261 0.05113807 -0.037384167 0.055294722 0.04797505 0.077273645 0.032535505 -0.013346848
00000000: 222f 773d dc72 00bd c10b 443d 3657 a73b
00000010: 2b02 93bd d74a 34bd 3526 64bd d37d cdbd
00000020: 5c1a 1cbd 8322 573d d6a0 adbd 9896 c7bc
00000030: e98e 0b3d 579a 073d 0a43 843d 0ed5 3fbd
00000040: 46e1 e9bb 51a4 7c3b ee11 ac3d b15f 3ebd
00000050: 8253 4c3d 6b9c 933d 80a6 1a3d 4aea b13c
00000060: 6ed7 59ba 1c5c 8c3c 42e5 c83c 368b 7b3d
00000070: 2a0f adbc 05f9 263a cc8c 703d fc87 49bc
00000080: 6329 8fbd 77f2 213d 92a8 c4bd 6fa0 943d
00000090: 4304 19bd 1b31 ab3d 88b5 a5bd cbd2 ab3d
000000a0: b9be 553d e0df ae3d 9ee4 e53c d742 593d
000000b0: 84ec 1d3d 2b6f b4bd d3ad c53d ebc3 863d
000000c0: c5c6 e4bd 3d1f c7bb 571e 57bc 8c15 4a3d
000000d0: 44ca 893d 40dd 243d 14a1 6bbd 30e5 b03d
000000e0: ac5c f4ba 4d96 653d 9b53 2b3d ccff cfbd
000000f0: ab0a 2a3d 09bf 5f3c e0b5 14bd f262 8abd
00000100: 7853 b1bb a09b 223b c40d 2ebd 95ca a9bb
00000110: 67e3 033c 0709 6abc 35b5 893c 313c 71bd
00000120: 11d4 c03d ddf8 9d3d deeb 7cbd 4149 00bc
00000130: d849 9d3c cd17 a2bc a258 a9bd c4ce 77bd
00000140: 0c21 9abd 6c5f 233c 37ac ef3b b1c6 523d
00000150: 1c0b 80bd ef90 463d bdc7 7cbd ca1b c4bd
00000160: daaa 903d 8654 ea3c 2c34 453d 7e45 5cbd
00000170: 201a 1a3d fdc9 76bd 89a7 413d 4ed4 6bbd
00000180: 37f0 d4bd 340a b93d d652 81bd 4997 1e3c
00000190: 0d80 5a3d 64a6 5bbd f648 8bbd e7be 423d
000001a0: e542 a2bc 14f0 86bd 18a5 1fbd a592 a4bd
000001b0: 9386 cfbc 14b0 0abd 50b1 a0bd 1e0c 68bd
000001c0: 09e6 0b3d 3d52 85bd a564 3bbd aa14 ab3c
000001d0: 418d 60bd 3a8e cfbd d2b4 c5bc e547 563c
000001e0: b4c7 943d 31ee e53c 77ba b33d ca8b 34bd
000001f0: d92e 13bd a249 813d 6ba0 58bd e60a 4e3d
00000200: 34fd da3c cc5b c0bd 3d8d a7bc 3522 513d
00000210: 3a01 733d e7f5 89bd 5af9 493d 389c 483d
00000220: 2ffc 493d 7845 8d3b 32e7 a8bb 8972 b7bc
00000230: af48 2ebd 5287 a23d c485 2cbd 9322 72bd
00000240: ca07 75bd 9595 72bd 3fb4 633d f02d b8bd
00000250: c9be 58bd 5b7b ddbc 14b2 14bd 86c7 b1bc
00000260: 5245 053d 8896 6b3c 9ef3 86bd 9697 203c
00000270: 329a 183c 3c17 033d 6f09 86bb b056 00bc
00000280: ba65 6ebd ab4d 50bd 593b 02bc d62d 17bd
00000290: 6b9f 9c3d d54a cdbd 8173 92bc 4c6f a03d
000002a0: d903 17bd f81e bc3c 589f 3abd 560d 89bd
000002b0: 15e6 a1bd 2d2d 1ebc 9a4a c83d 4aac 853c
000002c0: ef4d dcbd 8dfa 85bd f5a5 8f3d db58 8fbd
000002d0: 92bd 2ebc 3d97 1f3d 9817 32bd 77b9 023d
000002e0: 1f18 09bd 3997 a7bd 76bf 103d bc8b 85bd
000002f0: dd2b ab3d b436 883d 99dc 653d 6873 a4bd
00000300: e474 b23d f7e9 83bb 0cdc 31bd cefd d4bd
00000310: 986d 8ebd 17b7 e43c 5fe8 ac3d 478b 31bd
00000320: 375b 6a3d 20ca 81bd b22b 86bd 2c9e 4b3d
00000330: 978d 28bd d3ea b53d c70c 0d3d 5d2d ab3c
00000340: 98f6 0fbd 0154 8f3d 6b29 a1bd d942 963d
00000350: 5a43 133b 6c94 b53c 8d4d 35bc 037f 11bd
00000360: fa9f dabc 5854 8d3b 5d2a 49bd 1290 9c3d
00000370: 6788 00bd d2db 5cbc 02b9 813d 7b8f 22bd
00000380: ae4f b9bd cf57 c7bc 63a8 183d 4b52 9f3d
00000390: b7ef b3bd b79f 0b3d bd72 99bc 3c36 873d
000003a0: 0964 9f3d b6c2 94bc 3f1c 863d 262c 013d
000003b0: e646 0a3b 150b 89bd 7f14 a4bd f3f6 85bd
000003c0: 0bd4 61bd 8876 0e3c ef6a 83bd 4f25 0d3d
000003d0: 780d 62bd 02e8 80bd 9f01 febc cd0a ed3b
000003e0: f4a8 27bd 2776 513d 2420 19bd b87c 623d
000003f0: 7c81 443d a541 9e3d f343 053d bdac 5abc
