models/best_lstm_delta.pt (torch, 810636 bytes, 10 tensors)

lstm.weight_ih_l0 f4 [512, 6]
0	0x3de68053	0.11254945
1	0x3d9d3cf3	0.07677641
2	0xbd18a4e3	-0.037266623
3	0x3d2d564c	0.042318627
4	0x3d4bbd5e	0.04974114
5	0x3ceeacf7	0.02913521
6	0x3bc56e4a	0.0060251104
7	0x3d7bc903	0.061470997
8	0xbd09bb40	-0.03362584
9	0xbdc166e7	-0.09443455
10	0xbc415593	-0.011800188
11	0xbd1434a2	-0.036183007
12	0xbc51820f	-0.012787356
13	0x3d3fb248	0.04680088
14	0x3dc4559f	0.095866434
15	0x3ca33d23	0.019926613
16	0x3e1b2057	0.15149055
17	0x3db20616	0.08692567
18	0x3d9e3fd1	0.07727016
19	0x3df234f4	0.11826506
20	0x3ca5f4de	0.020258363
21	0x3d49967c	0.04921578
22	0x3e0cb87f	0.13742255
23	0x3d060996	0.032723986
24	0x3e354095	0.17700417
25	0x3da94891	0.08265794
26	0x3e027b37	0.12742315
27	0x3e22d3a6	0.1590105
28	0x3d62c286	0.055361293
29	0x3e589b2c	0.21152943
30	0x3e15cb00	0.1462822
31	0x3da753f9	0.081703134
32	0x3dd9cf39	0.10635228
33	0x3d70c99f	0.05878603
34	0x3e22f339	0.15913095
35	0xbd27b9b9	-0.040948603
36	0x3da47311	0.0802976
37	0x3cec7502	0.028864387
38	0x3cc8739d	0.024469191
39	0x3d69eae3	0.05710877
40	0x3e44bf90	0.192137
41	0x3d449451	0.047993008
42	0xbc8bdb8f	-0.017072467
43	0xbd3ea428	-0.04654327
44	0x3d931ea9	0.07183582
45	0x3dc45880	0.095871925
46	0x3e69047e	0.2275562
47	0x3cc3884a	0.023868699
48	0xbb2ade1b	-0.0026072327
49	0x3d5cf387	0.053943183
50	0xbd890d00	-0.06691933
51	0x3e0b65de	0.13613078
52	0x3e855cab	0.26047263
53	0x3e318263	0.17334895
54	0x3db1fbca	0.08690603
55	0x3e112ced	0.14177294
56	0x3d59435a	0.053042747
57	0x3dfd2e67	0.12362366
58	0x3dd91de7	0.106014065
59	0xbb109be8	-0.0022065584
60	0x3df970d2	0.12179722
61	0xbd30f4c4	-0.043202177
62	0x3a803588	0.0009781579
63	0x3de1057f	0.109873764
64	0x3e651c05	0.2237397
65	0x3e11c222	0.14234212
66	0x3cc195b4	0.023630954
67	0x3d284123	0.041077744
68	0x3c880d32	0.016607855
69	0x3de2c633	0.1107296
70	0x3d8f4587	0.06995683
71	0xbdca4de6	-0.09878139
72	0x3e8a3724	0.26995194
73	0x3e7a80c9	0.2446319
74	0x3da0f653	0.078594826
75	0x3e3d83c7	0.185073
76	0x3e76f9a9	0.24118675
77	0x3e9b160c	0.30290258
78	0x3dcb1afa	0.09917255
79	0x3e20e2b0	0.15711474
80	0x3da74369	0.08167154
81	0x3dba06e3	0.09083345
82	0x3e9ba080	0.3039589
83	0x3d51a1e7	0.051179793
84	0xbd8efc9e	-0.06981777
85	0x3d148c4a	0.036266603
86	0xbb672162	-0.00352677
87	0x3d2e5140	0.042557955
88	0x3e62cabb	0.22147648
89	0x3ee2eb4c	0.44320142
90	0x3e46a80b	0.19400041
91	0x3dc8536a	0.09781535
92	0x3dd9936e	0.10623823
93	0x3e4c2e6e	0.19939587
94	0xbb2d13bd	-0.002640947
95	0x3e0dd388	0.13850224
96	0xbc55bfce	-0.013046218
97	0x3e0958f6	0.13412842
98	0x3d76f27c	0.060289845
99	0x3eb653af	0.3561072
100	0x3e3222b1	0.17396046
101	0x3ebefa54	0.3730036
102	0xbc25432d	-0.010086817
103	0x3d9380cf	0.07202303
104	0x3e10fae3	0.14158206
105	0x3d2362e1	0.03988922
106	0x3e546cd5	0.20744641
107	0x3e05b637	0.1305779
108	0xbd754049	-0.05987576
109	0x3d8c33be	0.068458065
110	0x3daaa28c	0.083317846
111	0x3cdd1e25	0.026991913
112	0x3e4d2c41	0.20036413
113	0x3da1bec5	0.078977145
114	0x3d80e367	0.062933736
115	0xbc905536	-0.017618757
116	0xbd2fbd42	-0.0429051
117	0xbd093353	-0.033496212
118	0x3cfa7a6b	0.030575952
119	0xbc43a824	-0.011941943
120	0x3ec35f49	0.38158634
121	0x3e99854d	0.29984513
122	0x3ea98377	0.33108112
123	0x3ef32c4b	0.4749473
124	0x3eb51bbd	0.35372725
125	0x3f1be248	0.6089215
126	0x3db30590	0.08741295
127	0xbc55d246	-0.013050621
128	0x3d9f6bca	0.07784231
129	0x3e416ce9	0.18889202
130	0x3d75188b	0.05983786
131	0x3e52bf11	0.20580699
132	0x3d8f04a1	0.06983305
133	0x3b77cdb1	0.003781181
134	0xbd7be153	-0.061494183
135	0xbd6f9ab8	-0.05849716
136	0x3dfd5dfc	0.12371442
137	0x3c5b29da	0.013376677
138	0x3e0c5107	0.13702784
139	0x3d59fb5a	0.053218223
140	0x3bd42e4a	0.0064752446
141	0x3df9f8ee	0.12205683
142	0x3e377e93	0.17919378
143	0x3df648e7	0.12025624
144	0x3e2736e3	0.16329531
145	0x3e45293d	0.19254012
146	0x3e06d8e7	0.13168679
147	0x3e249c35	0.16075213
148	0x3e9d343d	0.30703917
149	0x3e08ea9d	0.13370748
150	0x3d7c5141	0.061600927
151	0x3e0063eb	0.12538116
152	0x3df15743	0.11784222
153	0x3e0bfa1b	0.13669626
154	0x3eaa0e66	0.3321411
155	0x3ddd0743	0.10792401
156	0x3dc21ae3	0.094777845
157	0xbce3f32e	-0.027825918
158	0x3d8df2ad	0.06931052
159	0xbcf0a3e9	-0.029375033
160	0x3ddbd337	0.107336454
161	0xbda6b509	-0.081399985
162	0x3dcecc4e	0.10097562
163	0x3d243de7	0.040098097
164	0x3e1066d6	0.14101729
165	0x3e69adb1	0.22820164
166	0x3e2bdae3	0.16782717
167	0x3e8b845f	0.2724943
168	0x3e13099f	0.14359139
169	0x3e2d93a6	0.16950855
170	0x3e0cfd3a	0.13768473
171	0x3e14e21f	0.14539383
172	0x3ec5e44b	0.38650736
173	0x3dec3dfb	0.11535259
174	0x3d9d26d8	0.076734245
175	0x3e27a1c4	0.16370302
176	0x3e1aa898	0.15103376
177	0x3e314efd	0.17315288
178	0x3e47ec35	0.195237
179	0x3c0305f5	0.007997026
180	0x3d25f8ad	0.04052036
181	0x3db7e264	0.089787275
182	0x3db5ae96	0.0887119
183	0x3dcdb7cc	0.10044822
184	0x3e3387b9	0.17532243
185	0x3e00e0d6	0.12585768
186	0x3e20ef53	0.15716295
187	0x3dd07de8	0.10180265
188	0x3e159be8	0.14610255
189	0x3e160063	0.14648585
190	0x3e9f2c64	0.31088555
191	0x3e5a1ff0	0.21301246
192	0x3d18eedb	0.037337165
193	0xbd0856ad	-0.033285785
194	0x3d97f79f	0.07420277
195	0x3c88cbe1	0.01669878
196	0x3bb29704	0.0054501314
197	0x3e3e5fb0	0.1859119
198	0xbccc3256	-0.024926346
199	0x3d2d0825	0.042244095
200	0xbd2f6327	-0.04281917
201	0x3dd7e592	0.10541834
202	0x3e01b7b3	0.12667732
203	0x3c9c27c3	0.019061929
204	0x3e4cf1be	0.20014092
205	0x3e2d5b1e	0.1692929
206	0x3db57cb7	0.08861678
207	0x3d97944e	0.07401334
208	0x3dff8aa3	0.12477615
209	0x3e4f9a60	0.20273733
210	0x3db4912f	0.08816754
211	0x3ce65146	0.028114926
212	0x3e40cb7f	0.18827628
213	0x3dda9e59	0.10674734
214	0x3e298740	0.165555
215	0x3e038a42	0.1284571
216	0x3d0c9126	0.03431811
217	0x3d1256f2	0.03572745
218	0x3d286b49	0.04111794
219	0x3c2378f5	0.009977569
220	0x3ead2cca	0.33823234
221	0x3e263e02	0.16234592
222	0xbc485465	-0.0122271525
223	0x3d402536	0.046910487
224	0x3e3c2a49	0.18375506
225	0xbd1139c0	-0.035455465
226	0x3dd00fc5	0.10159258
227	0xbd827744	-0.06370404
228	0x3e1e92dd	0.15485711
229	0x3dab0400	0.08350372
230	0x3e234db7	0.15947615
231	0x3da7f0cc	0.08200225
232	0x3dec1b4d	0.11528645
233	0x3d98073d	0.074232556
234	0x3e390802	0.18069461
235	0x3e21f6e5	0.15816839
236	0x3dc78c49	0.09743554
237	0x3e62d9ed	0.22153445
238	0x3e561883	0.20907788
239	0x3e353ad8	0.17698228
240	0xbd19757c	-0.037465557
241	0x3de1d166	0.11026268
242	0x3df21ee1	0.11822296
243	0x3c95b5d5	0.01827518
244	0x3ec2494f	0.37946555
245	0x3e0a6121	0.13513614
246	0x3df51fe3	0.119689725
247	0x3e06e87b	0.13174622
248	0x3d96fbe1	0.07372261
249	0x3e320322	0.17384008
250	0x3ea5e5e4	0.32401955
251	0x3e913c05	0.28366104
252	0xbd130cad	-0.03590076
253	0x3e0341b9	0.1281804
254	0x3d0b0466	0.03393974
255	0x3d013c22	0.031551488

lstm.weight_hh_l0 f4 [512, 128]
0	0x3d0b45ab	0.034001987
1	0xbda51b71	-0.08061875
2	0xbd105ac6	-0.03524282
3	0xbdc56f82	-0.09640409
4	0xbc803a4a	-0.015652794
5	0xbd7e02cc	-0.062014386
6	0xbd31e02d	-0.04342668
7	0x3dc46981	0.09590436
8	0xbcc96819	-0.02458577
9	0x3b653c28	0.0034978483
10	0x3a52b77d	0.0008038206
11	0x3cfc8756	0.030826252
12	0xbb5661ca	-0.0032712095
13	0xbd9d9357	-0.076941185
14	0x3d5e8c1c	0.054332837
15	0xbc2a9763	-0.01041207
16	0xbda07cd6	-0.078363106
17	0x3d974cd2	0.07387699
18	0xbd5301f0	-0.05151552
19	0x3d7a2992	0.0610748
20	0x3db32571	0.08747376
21	0xbcdd5f11	-0.02702287
22	0xbc7388a3	-0.01486412
23	0x3d872cd4	0.06600347
24	0x3dcedf73	0.10101213
25	0x3d662081	0.056183342
26	0x3d8a49b6	0.067523405
27	0xbd304915	-0.043038446
28	0xbd432611	-0.047643725
29	0xbc4ab89a	-0.012373114
30	0x3d7fe4d7	0.062474098
31	0xbcf3ab35	-0.029744724
32	0x3d37d4c0	0.04488063
33	0xbd663b59	-0.056208942
34	0xbc1f3681	-0.009717585
35	0xbca53965	-0.02016897
36	0x3d8f0624	0.06983593
37	0x3d8756df	0.06608366
38	0x3d1c10ae	0.038101844
39	0xbd524952	-0.051339455
40	0x3c9280de	0.017883714
41	0x3cd6ced0	0.026221663
42	0xbdd02fdd	-0.10165379
43	0x3cab321d	0.02089792
44	0x3c47c412	0.012192743
45	0xbceeebcb	-0.02916517
46	0xbd1e2354	-0.03860791
47	0xbd736f10	-0.05943209
48	0xbd6ef229	-0.05833641
49	0xbd3cf568	-0.046132475
50	0x3d80fb3a	0.06297918
51	0xbd063bd1	-0.03277189
52	0xbda90ee4	-0.08254793
53	0x3d7cf66f	0.061758455
54	0xbdacf9ea	-0.08446105
55	0x3d24a35d	0.040194858
56	0x3ca15059	0.019691633
57	0xbdafa369	-0.0857609
58	0x3d1514be	0.036396734
59	0xbd45a9aa	-0.048257507
60	0xbd4febf8	-0.050762147
61	0x3d585521	0.05281556
62	0xbd8ae058	-0.067810714
63	0xbdcfd35d	-0.10147736
64	0x3dfe2964	0.124102384
65	0xbd0a5249	-0.03376988
66	0xbd6a608f	-0.05722099
67	0xbc23f6f1	-0.010007606
68	0xbc3eb744	-0.011640374
69	0x3d480f3a	0.048842646
70	0x3d166c12	0.036724158
71	0xbce404e7	-0.027834369
72	0x3cdb652a	0.026781637
73	0xbdada505	-0.084787406
74	0xbc624f67	-0.013812876
75	0xbd5b01f3	-0.053468656
76	0x3dedef47	0.11617904
77	0xbceded36	-0.029043775
78	0x3d6f4299	0.05841312
79	0xbd5145ba	-0.051091887
80	0x3d315e01	0.04330254
81	0x3a87eb3a	0.0010369786
82	0x3de8c096	0.11364858
83	0xbb11cb5f	-0.0022246463
84	0xbd27b14a	-0.04094056
85	0x3d72c987	0.059274223
86	0x3c72cae1	0.014818878
87	0x3cddf13f	0.027092574
88	0xbdea5854	-0.114426285
89	0x3d91bcce	0.0711609
90	0xbc4351c2	-0.011921348
91	0xbdaf6ce0	-0.08565688
92	0x3d57ca7c	0.05268334
93	0xbc6d36b2	-0.014478372
94	0x3db21e7b	0.0869722
95	0xbd54bb3e	-0.05193638
96	0xbdaaae4b	-0.08334025
97	0xbca292e8	-0.019845441
98	0x3cb3c605	0.021945009
99	0xbcd24c98	-0.025671288
100	0xbd24277a	-0.04007671
101	0xbde5ef1e	-0.112272486
102	0xbd9eb294	-0.07748905
103	0x3d3e11f4	0.04640384
104	0x3d23e1c4	0.04001023
105	0xbd32c6d1	-0.043646637
106	0x3da9725b	0.08273765
107	0x3d15c0c8	0.036560804
108	0xbd74ec31	-0.059795562
109	0x3ca3eb6b	0.020009717
110	0x3cd686ce	0.026187327
111	0x3dbd3519	0.09238643
112	0x3dd95ae3	0.106130384
113	0xbaa7a300	-0.0012789667
114	0x3d55d139	0.052201483
115	0xbcbe3811	-0.023220094
116	0xbda18ba8	-0.078879654
117	0x3d84fe50	0.06493819
118	0x3d91e7a5	0.07124261
119	0xbce2c123	-0.027679985
120	0x3c8fbd15	0.017546216
121	0x3cdb3e34	0.02676306
122	0x3ce81d12	0.028334174
123	0x3ca3c5a4	0.019991703
124	0x3d15da85	0.03658535
125	0x3b21a0fa	0.00246626
126	0xbdaa6b9b	-0.08321305
127	0x3c1513a1	0.009098918
128	0xbd0aca7b	-0.033884507
129	0x3d811c5d	0.06304238
130	0x3cc1df4a	0.023666043
131	0xbae56c92	-0.001750367
132	0xbd767a7f	-0.060175415
133	0xbcb3e4f8	-0.021959767
134	0x3db0f357	0.086401634
135	0x3ce6a341	0.028154017
136	0xbd7ebdad	-0.062192608
137	0xbcaf61d6	-0.021408956
138	0x3d6b1cf4	0.05740066
139	0x3d65eb78	0.056132764
140	0xbd584250	-0.052797616
141	0xbd69252b	-0.05692021
142	0x3e05b062	0.13055566
143	0xbb1d1856	-0.0023970804
144	0xbcac68b2	-0.021046016
145	0x3d34af0d	0.044112254
146	0xbc16c7c2	-0.009202899
147	0xbcecf2b6	-0.028924327
148	0x3ce94014	0.028472938
149	0x3d1a760e	0.037710242
150	0x3d8f0a86	0.06984429
151	0x3df9e3c3	0.12201645
152	0xbce5a8f1	-0.02803466
153	0x3ce51554	0.027964272
154	0x3e0eb7dd	0.13937326
155	0xbbac9288	-0.0052664913
156	0x3d4c490c	0.04987435
157	0x3daa9f7a	0.08331199
158	0x3d40cccc	0.04707031
159	0x3d1f1aa2	0.03884376
160	0xbd4d41a5	-0.05011143
161	0x3e04d87b	0.12973206
162	0xbce02dc9	-0.027365582
163	0x3d48393c	0.048882708
164	0xbd068e49	-0.032850537
165	0xbd5a169e	-0.053244226
166	0xbd1f8ceb	-0.03895275
167	0xbdceecb0	-0.10103738
168	0xbd579810	-0.052635252
169	0xbcdaf3e2	-0.02672762
170	0xbd86259c	-0.06550142
171	0xbde3ea70	-0.111287
172	0xbd03f050	-0.0322116
173	0xbd512581	-0.051061157
174	0xbd6b34ef	-0.05742353
175	0x3d0ccc50	0.034374535
176	0xbbad6e0e	-0.0052926606
177	0xbb528820	-0.0032124594
178	0xbd7a3ab6	-0.061091147
179	0x3d7490d9	0.05970845
180	0x3deac48c	0.114632696
181	0x3bbba8d2	0.005726912
182	0xbd688186	-0.05676415
183	0x3d285eb1	0.04110593
184	0xbbb22c7e	-0.005437433
185	0x3d96e631	0.07368124
186	0xbd24bd0d	-0.040219355
187	0x3ce0765d	0.02740019
188	0xbc4fd973	-0.012686121
189	0xbd7d8589	-0.061894927
190	0xbda6ae60	-0.08138728
191	0xbe0259e1	-0.12729599
192	0xbcb1e676	-0.021716338
193	0x3d10694e	0.035256676
194	0x3e0e8177	0.13916574
195	0x3b76d414	0.003766303
196	0x3d2e9dae	0.042630844
197	0x3d18fc20	0.03734982
198	0xbd95c4d1	-0.073129304
199	0x3b16fa89	0.0023037514
200	0xbc39de53	-0.01134451
201	0xbbd406b1	-0.0064705242
202	0xbd381034	-0.044937328
203	0x3daa9378	0.08328909
204	0x3dd399cb	0.10332068
205	0x3deadfa7	0.114684395
206	0x3d9ea661	0.07746578
207	0xbc78d29f	-0.015186935
208	0xbd2909f7	-0.04126927
209	0xbc94e2b6	-0.01817451
210	0x3b0b7a6c	0.0021282686
211	0xbbb0d60a	-0.005396609
212	0x3c010606	0.007874971
213	0x3d8bd46b	0.06827625
214	0x3c9d071c	0.01916843
215	0xbc95f4ff	-0.0183053
216	0xbd9989b4	-0.07496968
217	0x3c386553	0.011254626
218	0x3db11ece	0.08648454
219	0x3db9df77	0.09075826
220	0xbde73a34	-0.11290398
221	0xbd172fed	-0.03691094
222	0x3b165161	0.002293669
223	0xbdada3a7	-0.0847848
224	0xbd7ee82f	-0.062233146
225	0xbd4f8ee6	-0.050673388
226	0x3e0fc16c	0.14038628
227	0x3dba4537	0.09095233
228	0xbd1091e4	-0.035295382
229	0xbc547b61	-0.012968869
230	0xbd71f8da	-0.059075214
231	0x3d1a7cf5	0.037716825
232	0x3d814ca1	0.06313444
233	0xbbfabcb1	-0.0076518883
234	0x3d491bb8	0.0490987
235	0xbbdab6bc	-0.0066746157
236	0xbccab6cf	-0.024745373
237	0xbc03d44e	-0.008046223
238	0xbcc23a84	-0.023709543
239	0x3d79692e	0.060891323
240	0x3c07a63c	0.008279379
241	0xbd369d57	-0.044583645
242	0xbcfd9556	-0.030954998
243	0x3d1c9ff7	0.038238492
244	0x3c252dfc	0.010081764
245	0x3d1fb58e	0.038991503
246	0x3ddfc24c	0.10925731
247	0x3d575169	0.052567873
248	0x3d3f24d9	0.046666
249	0x3dbc460a	0.091930464
250	0xbd77b316	-0.060473524
251	0xbc54c7c6	-0.012987083
252	0x3d4132c6	0.047167562
253	0x3bd90be9	0.0066237343
254	0x3d69ef13	0.057112765
255	0x3c72109b	0.014774467

lstm.bias_ih_l0 f4 [512]
0	0x3ca14458	0.01968591
1	0x3b8105d8	0.003937464
2	0x3c416a89	0.011805185
3	0x3da2ddc7	0.07952457
4	0x3e185bf5	0.14878829
5	0x3dbc2848	0.091873705
6	0xbc2de697	-0.010614059
7	0xbd2e264e	-0.042517
8	0x3df1c04e	0.11804257
9	0x3e681245	0.2266322
10	0x3dbac7e7	0.091201596
11	0x3e026210	0.1273272
12	0x3e24603c	0.16052336
13	0x3cb75e5a	0.022383858
14	0x3ded1155	0.115755714
15	0x3e470c1a	0.1943821
16	0x3e5eadab	0.21745937
17	0x3dfa9340	0.12235117
18	0x3d717cb4	0.058956817
19	0x3d1c1668	0.038107306
20	0x3ebc1314	0.36733305
21	0x3d34d866	0.044151686
22	0x3d5bdc24	0.05367674
23	0x3d8e9b84	0.06963256
24	0x3e76439b	0.24049227
25	0x3d2fbfd6	0.04290756
26	0x3db2d91d	0.08732817
27	0x3e3d1786	0.18466005
28	0x3dd41bef	0.103568904
29	0x3d465978	0.048425168
30	0x3db44ef4	0.088041216
31	0x3e167a58	0.14695108
32	0xbca2460d	-0.019808793
33	0x3e0f9449	0.1402141
34	0x3dde8c75	0.10866634
35	0x3d80d923	0.062914155
36	0xbcd698f7	-0.026195986
37	0x3bf4e3eb	0.007473459
38	0x3d55a46b	0.052158754
39	0x3e03177d	0.12801929
40	0x3ce3a896	0.027790349
41	0x3dac5517	0.08414667
42	0x3dc09704	0.09403804
43	0x3d35a12b	0.044343155
44	0x3e2be97b	0.16788284
45	0x3e847654	0.25871527
46	0x3d03d5db	0.03218637
47	0x3d88bf16	0.06677072
48	0x3c23499d	0.009966281
49	0x3dc970b8	0.098359525
50	0x3e2875a7	0.16451131
51	0x3d64465c	0.055731162
52	0x3d895244	0.06705144
53	0x3db7d509	0.0897618
54	0x3e0d3bfb	0.13792412
55	0x3e5c66c9	0.21523584
56	0x3dc82abc	0.09773776
57	0xbc16af7c	-0.009197112
58	0xbbaa0e20	-0.005189672
59	0x3d004dd2	0.031324215
60	0x3b00ad83	0.001963467
61	0x3bfa93a2	0.0076469937
62	0x3db9e269	0.090763874
63	0x3d914b80	0.070944786
64	0x3d3abad4	0.04558833
65	0x3d7975bf	0.060903307
66	0x3c94a8a6	0.018146824
67	0x3d2ee4da	0.04269872
68	0x3d958fd7	0.07302826
69	0x3d4b5e1c	0.049650297
70	0xbd56ff37	-0.052489486
71	0x3c9f1f58	0.019424126
72	0x3d48ac8f	0.04899269
73	0x3dbe4687	0.09290796
74	0x3d27174e	0.04079371
75	0x3d7880b2	0.06066961
76	0x3e85c4ef	0.2612681
77	0x3e85ddca	0.26145774
78	0x3e29117e	0.16510579
79	0x3d994e2e	0.07485615
80	0x3d501419	0.050800417
81	0xbdc08ef1	-0.09402264
82	0x3dece3aa	0.11566861
83	0xbbe09aac	-0.006854376
84	0x3d97ca04	0.07411578
85	0x3db32045	0.08746389
86	0x3d566e02	0.052351005
87	0x3d413975	0.047173936
88	0x3e11332b	0.14179675
89	0x3b4dbf3f	0.003139451
90	0x3e01329f	0.12616967
91	0x3cf3b007	0.029747022
92	0x3d95bb78	0.073111475
93	0x3e01313f	0.12616442
94	0x3d8b50f9	0.06802554
95	0x3cc72072	0.024307463
96	0x3e0eaf10	0.13933969
97	0x3da2e866	0.07954483
98	0x3ed0f21e	0.4080972
99	0x3e0d8a59	0.13822307
100	0x3d068227	0.032838967
101	0x3e904a9f	0.2818193
102	0x3dc2d34d	0.09512959
103	0x3df6185a	0.120163634
104	0x3e2235e5	0.15840872
105	0x3ba9b6e6	0.005179274
106	0xbc862aad	-0.016377771
107	0x3b1f9380	0.0024349391
108	0xbd5b61c8	-0.05356005
109	0xbc52de5d	-0.012870398
110	0xbda9a908	-0.08284193
111	0x3da234f2	0.07920255
112	0x3da00e6f	0.07815253
113	0x3eb2b67b	0.34904847
114	0x3e6a2278	0.22864711
115	0x3da3a118	0.079897106
116	0x3ce96b82	0.028493647
117	0x3d289e00	0.041166306
118	0x3e020cdd	0.1270022
119	0x3e2bc7a2	0.16775373
120	0x3cd42e02	0.025900844
121	0xbd5b2fc4	-0.05351235
122	0x3e9bf198	0.3045776
123	0x3c5017c7	0.012700981
124	0xbcfb8a9f	-0.030705748
125	0x3e0a1947	0.13486205
126	0x3ec25166	0.37952727
127	0x3e231239	0.1592492
128	0xbd321737	-0.04347917
129	0xbcb9fce1	-0.02270359
130	0x3ba2da04	0.004969837
131	0x3c0fe40a	0.008782396
132	0x3ca229da	0.019795347
133	0x3cbd2875	0.02309058
134	0xbda9f352	-0.08298363
135	0xbd5119fe	-0.05105018
136	0x3bf49a00	0.0074646473
137	0xbc6b141f	-0.014348059
138	0xbcdb43a7	-0.026765658
139	0x3cd5471b	0.026034882
140	0xbdded9f9	-0.10881419
141	0x3cccef15	0.025016347
142	0xbdffe415	-0.12494675
143	0xbdb7a83c	-0.08967635
144	0xbdbb2396	-0.09137647
145	0xbdaaf154	-0.08346811
146	0xbd777712	-0.06041629
147	0x3d40b5a1	0.047048215
148	0xbe77d581	-0.24202539
149	0x3d71d915	0.059044916
150	0xbcdbf1b7	-0.026848657
151	0xbe0e65d8	-0.13906038
152	0xbd3d7cc4	-0.046261564
153	0xbdaeee6d	-0.0854157
154	0xbcbd061a	-0.023074199
155	0xbde522ba	-0.11188264
156	0xbd467e7c	-0.04846047
157	0x3d3c18ce	0.045922093
158	0xbd325252	-0.043535538
159	0xbdc5e904	-0.09663585
160	0x3cb1102b	0.021614155
161	0x3cdd0348	0.026979104
162	0x3cf9f5b5	0.03051267
163	0xbb0b8b33	-0.0021292686
164	0xbdde5895	-0.108567394
165	0xbd7a1d6b	-0.06106321
166	0x3be17ae1	0.0068811034
167	0xbe30805b	-0.17236464
168	0xbe18f52e	-0.14937279
169	0xbe07d346	-0.13264188
170	0x3cf80299	0.030274676
171	0xbc30760d	-0.010770333
172	0x3d0140cc	0.031555936
173	0xbd25bd08	-0.040463477
174	0xbe07e147	-0.1326953
175	0x3d6b38a1	0.057427052
176	0xbd94428f	-0.072392575
177	0xbdda9ed6	-0.10674827
178	0xbdf3d13e	-0.11905144
179	0xbdb36da6	-0.08761148
180	0x3caa3a53	0.020779764
181	0xbd2cc1b0	-0.042176902
182	0xbdb6d220	-0.08926797
183	0xbe39aa0b	-0.18131272
184	0xbb7a89c1	-0.003822908
185	0xbdbb2d3b	-0.091394864
186	0x38998c20	7.321709e-05
187	0x3d0dac59	0.03458819
188	0xbd68f695	-0.056875784
189	0x3d162846	0.0366595
190	0x3c4726ce	0.012155248
191	0xbc2e7cb0	-0.010649845
192	0xbd3b3e58	-0.045713753
193	0xbdaadf91	-0.08343423
194	0xbe108620	-0.14113665
195	0xbdbda5a7	-0.09260111
196	0xbdd66095	-0.1046764
197	0xbddb8ad7	-0.10719841
198	0xbdb23b90	-0.08702767
199	0x3c79665f	0.015222161
200	0x3ceb3b86	0.028714906
201	0x3d19f880	0.037590504
202	0x3d0f9cfa	0.035061814
203	0xbdbf750e	-0.09348498
204	0xbcb78612	-0.022402797
205	0xbe086774	-0.13320714
206	0xbd8b0618	-0.06788272
207	0xbd838606	-0.06422047
208	0xbdc737ab	-0.09727415
209	0xbd8ad8b0	-0.06779611
210	0xbdbe4de8	-0.09292203
211	0x3c153c80	0.009108663
212	0xbdf729f9	-0.120685525
213	0x3b845f18	0.0040396564
214	0x3d71bc11	0.059017245
215	0xbd6a1d4c	-0.057156846
216	0xbd3a0eb2	-0.04542417
217	0xbd2696e9	-0.040671263
218	0xbd6a8d5d	-0.05726372
219	0x3d4b4731	0.04962844
220	0xbe5369aa	-0.20645776
221	0xbd2e6756	-0.042579018
222	0x3d3efceb	0.04662792
223	0x3d7dcf65	0.061965365
224	0xbd99aae1	-0.07503296
225	0xbd6f27be	-0.05838751
226	0xbe49f157	-0.1972097
227	0xba02e392	-0.0004993017
228	0x3d4ec7f3	0.050483655
229	0xbd09a9b6	-0.033609115
230	0x3d957b8d	0.07298956
231	0x3c1a7fda	0.009429896
232	0xbd1d653c	-0.038426623
233	0xbda64f1d	-0.081205584
234	0xbc09a87b	-0.008401985
235	0xbbf22c51	-0.007390537
236	0xbcdd9e9e	-0.027053174
237	0x3ba8b79d	0.0051488415
238	0xbd7172d7	-0.05894741
239	0xbdaded81	-0.08492566
240	0xbd9e2875	-0.0772256
241	0xbd7140be	-0.058899634
242	0xbc23837b	-0.009980078
243	0xbdd9021d	-0.10596106
244	0x3d6e2eeb	0.058150213
245	0xbce0d8b8	-0.02744709
246	0x3c6f6136	0.014610579
247	0xbdf57d17	-0.119867496
248	0xba2843a9	-0.00064187736
249	0x3ae70946	0.0017626665
250	0xbdf3b646	-0.119
251	0xbd076ea9	-0.033064518
252	0x3c7bcbfc	0.015368458
253	0xbca3365e	-0.019923385
254	0xbdbe95d7	-0.093059234
255	0x3c85ccaf	0.016332952

lstm.bias_hh_l0 f4 [512]
0	0x3de27124	0.11056736
1	0x3d8020c2	0.06256248
2	0x3e231a68	0.15928042
3	0x3e233bda	0.159408
4	0x3dfcd149	0.123446055
5	0x3cc7d65f	0.024394212
6	0x3dd500ae	0.1040052
7	0x3dc435e9	0.09580595
8	0x3dcba358	0.09943265
9	0x3df8d81a	0.12150593
10	0xbd89c6f0	-0.067273974
11	0x3cf3ca39	0.029759513
12	0x3e3376cf	0.1752579
13	0x3de2f706	0.11082272
14	0x3db02cbb	0.08602282
15	0x3e053270	0.13007522
16	0x3e7fd6f4	0.24984342
17	0xbd25161c	-0.04030429
18	0xbc94d863	-0.018169587
19	0x3dbcb16b	0.09213527
20	0x3efc3c56	0.49264783
21	0x3cb34ab1	0.021886202
22	0x3d12e0a9	0.035858784
23	0x3e362354	0.17786914
24	0x3dea427f	0.114384644
25	0x3d59c638	0.05316755
26	0x3bfe72fb	0.0077651716
27	0x3e2d00be	0.16894814
28	0x3dc53d37	0.096308164
29	0x3e04782c	0.12936467
30	0x3de5443d	0.11194656
31	0x3e6dbef9	0.23217382
32	0xbcf5f65e	-0.030024704
33	0x3d3ddec9	0.046355043
34	0x3dd6b1dd	0.104831435
35	0x3bb98495	0.005661557
36	0x3d9e8c38	0.07741588
37	0x3dd79523	0.105264924
38	0x3e40d742	0.18832114
39	0x3e8285af	0.25492617
40	0x3dea4c44	0.11440328
41	0x3e16499e	0.1467652
42	0x3dc5e4cc	0.0966278
43	0x3c2a3cab	0.010390441
44	0x3db2506e	0.08706747
45	0x3e35cdc1	0.1775427
46	0x3c8d5e7b	0.017256966
47	0x3dd25d4f	0.102717035
48	0x3da31d55	0.07964579
49	0x3d6fe4fc	0.058567986
50	0x3e041997	0.12900387
51	0x3e458a13	0.19290952
52	0x3c8d85b4	0.017275669
53	0x3d5bb155	0.053635914
54	0x3d423a66	0.047418974
55	0x3ea05114	0.31311858
56	0x3de8b3f5	0.11362449
57	0x3db14288	0.08655268
58	0x3d5e44d9	0.054264877
59	0x3caa5152	0.02079073
60	0xbd58dcf6	-0.0529451
61	0x3b5e8140	0.003395155
62	0x3d3693ee	0.04457467
63	0x3d2f4345	0.042788763
64	0x3d569bcb	0.05239467
65	0x3d448606	0.047979377
66	0x3cbd681f	0.023120938
67	0x3dc1904f	0.09451353
68	0xbcf1830b	-0.029481431
69	0x3dd37ce1	0.10326553
70	0xbc9938ba	-0.018703807
71	0x3d6add07	0.057339694
72	0xbd7e3379	-0.062060807
73	0x3d16fa69	0.036859903
74	0xbccd4cfb	-0.025061121
75	0x3d01bb7b	0.031672936
76	0x3eb93b06	0.36177844
77	0x3ea24efa	0.3170088
78	0x3e07b6a6	0.13253269
79	0x3deccfc8	0.11563069
80	0x3df5518c	0.119784445
81	0x3c5d43a2	0.013504894
82	0x3dabac89	0.08382518
83	0x3ca0e468	0.019640163
84	0x3daa388e	0.08311568
85	0xbc155b57	-0.009116015
86	0xbd633ca5	-0.055477757
87	0x3d273a4a	0.040827073
88	0xbc423934	-0.011854459
89	0x3e0a9a6a	0.13535467
90	0x3e40137f	0.18757437
91	0x3dba8357	0.09107082
92	0x3d80781e	0.062729105
93	0x3dd0b6b4	0.10191098
94	0x3e1a2496	0.15053019
95	0x3d84c3d0	0.06482661
96	0x3dffbda9	0.12487347
97	0x3dae13db	0.08499881
98	0x3ef89138	0.48548293
99	0x3d9b262a	0.075756386
100	0x3d653023	0.05595411
101	0x3e13b22d	0.14423437
102	0xbcead5a1	-0.02866632
103	0x3c61dcdd	0.013785568
104	0x3e0be252	0.13660553
105	0x3ba84f7a	0.0051364275
106	0xbd752ceb	-0.05985729
107	0x3e0b83e8	0.13624537
108	0x3d64a9f7	0.055826154
109	0xbcfeb090	-0.031090051
110	0x3c24c0ed	0.010055763
111	0x3d82d723	0.0638869
112	0x3d364889	0.04450277
113	0x3e935a92	0.28780037
114	0x3e50f87c	0.2040729
115	0xbc2ad543	-0.010426822
116	0xbd8974f1	-0.06711758
117	0x3de391b2	0.111117736
118	0x3d86d116	0.06582849
119	0x3df35bad	0.1188272
120	0x3ce2b780	0.02767539
121	0x3d911963	0.0708492
122	0x3e5e5cb2	0.21715048
123	0x3d7b47e4	0.061347857
124	0x3dac9f76	0.08428852
125	0x3da581ef	0.080814235
126	0x3e60c797	0.21951137
127	0x3e160103	0.14648823
128	0x3d5b303f	0.053512808
129	0xbd67d78e	-0.056602053
130	0xbd8b4f7d	-0.068022706
131	0xbdd9f1f9	-0.10641856
132	0x3987d036	0.00025904336
133	0xbcddf72b	-0.027095398
134	0x3d54879d	0.051887143
135	0x3c873534	0.016504861
136	0x3cf95769	0.030437188
137	0xbe04cd65	-0.12968977
138	0xbd1d8242	-0.0384543
139	0xbc6b215b	-0.014351214
140	0xbd4f76e3	-0.05065049
141	0xbe094af2	-0.13407496
142	0xbdf3e390	-0.119086385
143	0x3d261da8	0.040555626
144	0xbdbd090d	-0.09230242
145	0xbc4c62a8	-0.012474693
146	0x3d160ac6	0.036631368
147	0xbdabbcf6	-0.08385651
148	0xbe6b7c99	-0.22996749
149	0x3b8a61c0	0.0042230785
150	0xbd8a26ab	-0.067456566
151	0xbd8547a6	-0.065078065
152	0xbd50a842	-0.050941713
153	0xbdbf275f	-0.09333681
154	0x3d111bb2	0.035426803
155	0xbcac99d5	-0.021069447
156	0xbd2fcf2f	-0.042922195
157	0xbdf260b3	-0.1183485
158	0xbdac71ed	-0.08420167
159	0xbd4095a6	-0.047017716
160	0xbcebca2a	-0.028782923
161	0xbdef13d2	-0.11673702
162	0x3d0b10ab	0.033951443
163	0xbd969af7	-0.07353776
164	0xbdc2d5d5	-0.095134415
165	0xbcce9e54	-0.025221981
166	0xbbf7f81f	-0.00756742
167	0xbe093b97	-0.13401638
168	0xbe3bd0ab	-0.1834132
169	0xbdaa0c62	-0.08303143
170	0xbd1e5959	-0.038659427
171	0xbd932945	-0.07185606
172	0xbd28a4e2	-0.04117287
173	0xbdfbea53	-0.12300553
174	0xbe0545cd	-0.13014908
175	0xbc6f99bf	-0.014624058
176	0x3c94b596	0.018152993
177	0xbd1fa452	-0.038975067
178	0xbddfd31e	-0.10928939
179	0xbca412a6	-0.020028424
180	0x3cecfd41	0.028929355
181	0xbc55ad13	-0.013041752
182	0xbd8372a7	-0.064183526
183	0xbe48b376	-0.19599709
184	0xbd945ae3	-0.07243898
185	0xbd467d8b	-0.04845957
186	0x3ca2cf3a	0.019874204
187	0x3a933696	0.0011231478
188	0x3d2b3c1f	0.041805383
189	0xbd855d62	-0.06511952
190	0x3b709828	0.0036711786
191	0x3daca979	0.08430762
192	0xbda30cff	-0.07961463
193	0x3cd35b46	0.025800359
194	0xbd61a54b	-0.055089276
195	0xbdb6be62	-0.089230314
196	0x3b36af18	0.002787536
197	0xbdad7b70	-0.084708095
198	0xbda374c1	-0.079812534
199	0xbd8bf6d6	-0.068341896
200	0x3d7de928	0.061989933
201	0x3d396fc0	0.04527259
202	0xbdefea4d	-0.11714611
203	0x3d191d32	0.03738136
204	0xbe2322bf	-0.15931223
205	0xbdd75cca	-0.10515745
206	0xbe26c733	-0.16286926
207	0xbd881f01	-0.066465385
208	0x3d83feea	0.064451054
209	0xbd85571a	-0.06510754
210	0xbdceab7e	-0.10091303
211	0xbd664737	-0.05622026
212	0xbbdb69ae	-0.0066959476
213	0xbdaa9e3d	-0.08330963
214	0xbb5edf3d	-0.0034007572
215	0xbdc020c3	-0.09381249
216	0xbca863a6	-0.020555329
217	0x3c0ae22f	0.008476778
218	0xbc1da66f	-0.0096222
219	0xbdc459fb	-0.09587475
220	0xbe61887e	-0.22024724
221	0xbdaddae9	-0.084890194
222	0xbd0a11e9	-0.033708487
223	0xbc360938	-0.011110596
224	0x3cb108e2	0.021610681
225	0xbda9ae0a	-0.082851484
226	0xbdfbd12b	-0.12295755
227	0xbcb88bc6	-0.022527587
228	0x3b89faf1	0.0042108227
229	0xbd8233f7	-0.06357568
230	0x3da25463	0.07926252
231	0xbcd7a958	-0.026325867
232	0xbdcd83a8	-0.10034877
233	0xbe06205f	-0.13098286
234	0xbd44f724	-0.048087254
235	0xbdbae605	-0.09125904
236	0xbd5cce11	-0.053907458
237	0xbdb947b5	-0.0904688
238	0x3d4ca080	0.049957752
239	0xbc150fd3	-0.009098011
240	0xbcc3c896	-0.023899358
241	0xbd34e10f	-0.044159945
242	0xbd8779d0	-0.06615031
243	0x3d494780	0.049140453
244	0xbddade83	-0.10686972
245	0xbdd69fba	-0.10479684
246	0x3a765ac9	0.00093976833
247	0x3c4c2db9	0.012462073
248	0xbc1ad9fe	-0.009451387
249	0xbd34513a	-0.044022776
250	0xbca84bcf	-0.02054396
251	0xbdeb2732	-0.11482085
252	0xbd8027e3	-0.06257608
253	0xbcd0dfa0	-0.025497258
254	0xbdfe3407	-0.12412267
255	0x3c64ebad	0.013972205

lstm.weight_ih_l1 f4 [512, 128]
0	0x3cd52921	0.026020588
1	0x3d9f1673	0.07767954
2	0xbc407798	-0.011747263
3	0x3d44ef04	0.048079506
4	0x3cfa3e8f	0.030547408
5	0x3c9e20f2	0.019302819
6	0xbd71f96f	-0.05907577
7	0xbcfa090f	-0.030521898
8	0xbd9d5300	-0.076818466
9	0x3d05c038	0.032654017
10	0xbcbdf8e3	-0.023189967
11	0x3d46e48c	0.048557803
12	0xbd8717f7	-0.06596368
13	0xbcf0c477	-0.029390557
14	0xbadb0482	-0.0016709717
15	0x3cda8511	0.02667478
16	0xbd47e34b	-0.048800748
17	0xbd4da005	-0.050201435
18	0xbc0293e7	-0.007969833
19	0xbb7b9d8a	-0.003839346
20	0xbc8f34e7	-0.01748128
21	0xbdb89aa5	-0.09013871
22	0x3ad8c89c	0.0016539278
23	0x3d88ed4f	0.06685888
24	0xbc931cb0	-0.017958015
25	0xbc26c642	-0.010179104
26	0xbcbe9c42	-0.023267869
27	0xbb064ed0	-0.0020493753
28	0x3cb4d960	0.022076309
29	0x3d87bfb0	0.06628358
30	0x3dcdeb97	0.10054701
31	0xbda1f04b	-0.0790716
32	0xbdc063f5	-0.09394065
33	0x3d826f6c	0.06368908
34	0xbdafe483	-0.08588507
35	0xbd2379dd	-0.03991114
36	0xbd3f64f8	-0.04672715
37	0x3d960b7f	0.073264115
38	0x3d04edb0	0.03245324
39	0xbd00c623	-0.031438958
40	0xbe0ab486	-0.13545427
41	0xbd02c9b8	-0.031930655
42	0x3cac6278	0.021043047
43	0x3de7658f	0.11298668
44	0x3d23e33e	0.040011637
45	0xbcf6e31f	-0.030137597
46	0xbbf6d434	-0.007532621
47	0xbbfddd7d	-0.0077473507
48	0xbdf78576	-0.120860025
49	0x3c9be495	0.019029895
50	0x3d504bc4	0.050853506
51	0xbd0d004b	-0.034424108
52	0xbc68f17f	-0.014217733
53	0x3ba01d09	0.0048862738
54	0xbd8315b2	-0.064006224
55	0x3e276982	0.16348842
56	0xbd8f4a16	-0.06996553
57	0xbd0b5599	-0.03401718
58	0x3d9c0e78	0.07619947
59	0x3d37e36c	0.04489462
60	0x3c20afd7	0.0098075485
61	0xbb55f763	-0.0032648675
62	0xbbcefc99	-0.006316733
63	0x3d913359	0.07089872
64	0x3db88b1a	0.090109065
65	0xbd2ef658	-0.0427154
66	0xbd6a5f3a	-0.05721972
67	0x3d843c75	0.06456844
68	0x3c382b9e	0.011240868
69	0xbcfe4e0e	-0.031043079
70	0xbd7b3d13	-0.06133754
71	0x3c752ff7	0.014965049
72	0xbca0e588	-0.019640699
73	0x3ba979c1	0.005171985
74	0x3cd9691f	0.026539383
75	0x3d8b4420	0.06800103
76	0xbcc4f8df	-0.024044452
77	0xbc88bd77	-0.016691906
78	0xbd71557b	-0.05891941
79	0xba427522	-0.0007417967
80	0xbd684a42	-0.056711443
81	0xbad4062b	-0.0016176155
82	0x3c7375e2	0.014859648
83	0xbca349c7	-0.01993264
84	0xbdd72248	-0.105045855
85	0x3c86cf24	0.016456194
86	0xb9a3ffea	-0.00031280454
87	0x3d65f676	0.056143247
88	0xbdb01578	-0.08597845
89	0x3cf1abd8	0.029500887
90	0x3cc1aa23	0.023640698
91	0x3d40ac2b	0.047039192
92	0xbccef392	-0.025262628
93	0x3c732db5	0.01484244
94	0x3cd00362	0.025392238
95	0xbd2c4923	-0.042061936
96	0xbcf4a895	-0.029865542
97	0x3cc36799	0.02385311
98	0xbc7b6cfa	-0.015345806
99	0xbd7cfb37	-0.061763015
100	0x3c15ca87	0.009142525
101	0x3d4d0954	0.050057724
102	0xbd1e3d67	-0.038632777
103	0x3da2339e	0.079200014
104	0x3c02ee44	0.007991377
105	0xbcfc6be0	-0.030813158
106	0xbac2113f	-0.0014806165
107	0xbdc24486	-0.09485726
108	0x3d8dc8a2	0.06923033
109	0xbb96f5f2	-0.0046069557
110	0xbc5d4e49	-0.013507434
111	0x3d18f4f4	0.03734298
112	0xbd681de4	-0.05666913
113	0x3d15dd35	0.036587913
114	0x3bf76dad	0.007550916
115	0x3cc7cf03	0.024390703
116	0xbd870199	-0.065921016
117	0xbe029274	-0.1275118
118	0xbdae6db9	-0.08517022
119	0x3d024f08	0.03181365
120	0xbca8a87b	-0.02058815
121	0xbc2264ce	-0.009911729
122	0xbd1e27f2	-0.038612314
123	0x3c8dfad5	0.01733152
124	0xbdc0aa0a	-0.094074324
125	0xbd380fd1	-0.04493696
126	0xbd15ed7c	-0.036603436
127	0x3dcb578b	0.09928807
128	0xbd099b95	-0.03359564
129	0x3cc00b35	0.023442844
130	0x3dec891d	0.1154959
131	0x3d540dd6	0.051771007
132	0x3db6d5d8	0.08927506
133	0xbe1cbeb2	-0.1530712
134	0xbe097faa	-0.13427606
135	0x3e27bf72	0.16381624
136	0xbdc1f1e1	-0.09469963
137	0xbe209ed1	-0.15685584
138	0x3d9a4dda	0.0753438
139	0xbdf87483	-0.12131598
140	0xbdf9fd6d	-0.1220654
141	0x3d07cdb3	0.033155154
142	0x3cd91796	0.026500504
143	0x3e93a467	0.28836367
144	0x3e081f0c	0.13293093
145	0xbe1263ab	-0.14295833
146	0xbd9bd20b	-0.07608422
147	0xbc998c58	-0.018743679
148	0x3b9d0c2c	0.0047927108
149	0xbe5dc554	-0.21657306
150	0x3d621cbf	0.055203196
151	0x3d7d2ba3	0.061809193
152	0x3e3199bd	0.17343803
153	0x3e3aa15b	0.18225615
154	0x3d20e948	0.039284974
155	0xbe3abcd1	-0.1823609
156	0x3cf3cc6b	0.02976056
157	0xbdcc44fe	-0.09974097
158	0x3c9f4953	0.019444143
159	0xbd5b6d62	-0.053571112
160	0x3c7af7e6	0.015317893
161	0xbd21e1d4	-0.039522007
162	0xbd148429	-0.03625885
163	0x3cb4ae01	0.022055628
164	0xbd2ff72a	-0.042960323
165	0xbd8acdd0	-0.06777537
166	0x3dbfd554	0.09366861
167	0xbc03976c	-0.008031707
168	0xbb5df94b	-0.0033870514
169	0x3d8c2ba5	0.06844262
170	0xbd33eefa	-0.043929078
171	0x3d37e522	0.044896252
172	0xbcbb4a8a	-0.022862691
173	0xbd8bd50a	-0.06827743
174	0xbd5f5681	-0.054525856
175	0xbbf9bf2d	-0.007621667
176	0xbcbaca74	-0.022801615
177	0xbdf86a71	-0.12129677
178	0x3e095952	0.13412979
179	0x3caacd54	0.020849861
180	0x3d951d17	0.07280939
181	0x3d63ffb9	0.055663798
182	0x37028328	7.779141e-06
183	0xbce8146f	-0.028330056
184	0xbdf88f6b	-0.1213673
185	0xbcbbafe2	-0.022911016
186	0xbd5563c9	-0.052097116
187	0x3d02ddfb	0.03194998
188	0xbccba481	-0.024858715
189	0x3dc02458	0.09381932
190	0x3bb9c8b7	0.005669679
191	0xbe178088	-0.14795125
192	0x3e4577ff	0.19284056
193	0x3e14bf49	0.14526094
194	0x3d9eccff	0.07753944
195	0xbd1b8553	-0.037968945
196	0x3ddda205	0.108219184
197	0x3d55a91f	0.05216324
198	0xbc25a025	-0.010108982
199	0xbd50c93c	-0.050973162
200	0xbc451228	-0.012028255
201	0x3bd4d8a6	0.006495553
202	0x3cf55629	0.02994831
203	0xbe079646	-0.13240919
204	0x3e0ef41d	0.1396031
205	0x3de90c35	0.113792814
206	0x3e43954c	0.19099921
207	0x3c28752e	0.010281844
208	0xbbd7cf72	-0.0065860087
209	0xbceb6f8a	-0.02873971
210	0x3dd2865c	0.10279533
211	0xbd34d5f2	-0.044149347
212	0x3d0f3742	0.034964807
213	0xbdaf1e6c	-0.085507244
214	0xbd18710f	-0.037217196
215	0x3d66e11c	0.056367025
216	0xbb9b7f47	-0.0047453973
217	0xbdafa2d0	-0.08575976
218	0xbdee37fe	-0.116317734
219	0x3db9f294	0.09079471
220	0x38d142e6	9.9783574e-05
221	0xbd43bd16	-0.04778775
222	0x3d35cd93	0.044385504
223	0x3dc78a53	0.0974318
224	0x3d6970a0	0.056992173
225	0x3cae9573	0.021311497
226	0x3e2058b5	0.15658839
227	0x3daa76b4	0.08323422
228	0xbe28ab7b	-0.16471665
229	0xbd6af735	-0.05736466
230	0xbe187931	-0.14889981
231	0x3d831509	0.064004965
232	0xbe3a0b82	-0.18168452
233	0x3d94972e	0.07255398
234	0x3c706ec3	0.014674845
235	0xbd8fb0cf	-0.070161454
236	0xbc2cc037	-0.010543874
237	0xbd123733	-0.035697173
238	0x3d75f1ce	0.060045056
239	0x3d537951	0.05162937
240	0x3d1f8839	0.03894827
241	0xbe298c77	-0.1655749
242	0x3da53343	0.08066418
243	0xbce56be9	-0.028005557
244	0xbdb7386b	-0.08946308
245	0x3e01fa4e	0.1269314
246	0x3d09789b	0.033562284
247	0x3e1ccac0	0.15311718
248	0x3d8047e0	0.06263709
249	0xbd6bfb0f	-0.057612475
250	0x3de57451	0.11203826
251	0xbc8d71b3	-0.01726613
252	0x3c8e00b5	0.017334322
253	0x3e2f52d4	0.1712144
254	0x3ca19471	0.019724103
255	0x3c48171f	0.012212544

lstm.weight_hh_l1 f4 [512, 128]
0	0xbc165010	-0.009174362
1	0x3d4ac4b3	0.049503993
2	0x3ca7aa8f	0.02046707
3	0xbd8fcae9	-0.07021124
4	0xbde61ace	-0.11235581
5	0xbd775047	-0.060379293
6	0x3cb8b73b	0.022548309
7	0x3c81feb5	0.015868524
8	0xbd60489d	-0.05475675
9	0x3d26aeb9	0.040693972
10	0xbcd09b1d	-0.025464589
11	0x3db58b99	0.08864517
12	0xb921906e	-0.00015407961
13	0x3e0eb41c	0.13935894
14	0x3d1fec08	0.039043456
15	0x3d5e71eb	0.05430786
16	0xbd353b72	-0.044246145
17	0x3db3c382	0.087775245
18	0x3d6ac14b	0.057313245
19	0xbd2325f0	-0.039831102
20	0x3d012808	0.031532317
21	0xbd509a80	-0.050928593
22	0xbd9d7908	-0.076891005
23	0x3becd997	0.007228087
24	0x3b12680b	0.0022339846
25	0xbde4793c	-0.11155936
26	0x3dc0303e	0.093842015
27	0xbcc92d0f	-0.024557618
28	0xbd8c58a7	-0.068528466
29	0x3d805d26	0.06267767
30	0xbcfbaf34	-0.030723192
31	0xbd162ac4	-0.03666188
32	0x3d3e26d3	0.046423744
33	0x3d96e0fe	0.073671326
34	0x3d17e16d	0.037080217
35	0x3da7dc8b	0.08196362
36	0x3b739762	0.0037169089
37	0xbbfa4247	-0.0076372954
38	0x3b84e753	0.0040558963
39	0x3d814b3e	0.063131794
40	0x3db85790	0.09001076
41	0xbc8b6325	-0.01701505
42	0x3d6791ab	0.056535404
43	0x3b2204d4	0.0024722116
44	0x3d50f9c6	0.051019453
45	0x3d26eaf9	0.04075143
46	0x3d95d9d0	0.07316935
47	0x3bebcf3b	0.0071963347
48	0x3d0a277c	0.03372906
49	0xbc05c817	-0.008165381
50	0x3d91ff13	0.0712873
51	0x3c6de822	0.014520677
52	0x3d3df8da	0.0463799
53	0x3be9724a	0.00712422
54	0xbcfd1f2a	-0.03089865
55	0x3d2e364a	0.042532243
56	0xbd4a004c	-0.04931669
57	0xbccc71ac	-0.024956547
58	0xbd23e9fd	-0.04001807
59	0x3acb917f	0.0015531032
60	0x3d6cd1db	0.05781732
61	0xbcb137e0	-0.021633089
62	0x3d8745ee	0.06605135
63	0x3cb0fabd	0.021603936
64	0xbd68911f	-0.056779023
65	0xbdde5a80	-0.10857105
66	0x3d05905a	0.032608368
67	0x3cb66634	0.022265531
68	0xbdb9843f	-0.09058427
69	0x3d816276	0.06317608
70	0x3d92aade	0.071614966
71	0xbd872392	-0.065985814
72	0xbd603e4e	-0.05474692
73	0x3db637ae	0.08897339
74	0x3d895b97	0.067069225
75	0x3d00d288	0.03145078
76	0x3ca06bc0	0.01958263
77	0xbd495abc	-0.049158797
78	0x3b07c1f8	0.002071498
79	0xbcb7819b	-0.022400668
80	0xbd7453e0	-0.059650302
81	0x3dafc734	0.08582917
82	0x3d663ad9	0.056208465
83	0x3cd662ae	0.026170101
84	0x3dd02ce2	0.10164811
85	0x3d08146c	0.0332226
86	0x3d08286a	0.033241667
87	0xbdd48a27	-0.10377913
88	0x3d235ad3	0.03988154
89	0xbd671a28	-0.05642143
90	0xbc482107	-0.012214906
91	0x3d23908a	0.039932765
92	0xbd891d5c	-0.06695053
93	0xbd9639f7	-0.07335275
94	0xbd9d6c0e	-0.076866254
95	0xbbeaf669	-0.0071704877
96	0x3bcf59a7	0.006327826
97	0xbd3b6d77	-0.04575869
98	0x3dcff7f1	0.10154713
99	0xbd5d535f	-0.054034587
100	0x3c8aa78c	0.016925596
101	0x3d0bf14f	0.034165677
102	0x3d73f71c	0.059561834
103	0xbd2ce957	-0.042214718
104	0xbce00d2c	-0.02735003
105	0xbd25a416	-0.040439688
106	0x3d3eda15	0.046594698
107	0xbccf8e87	-0.025336517
108	0xbbee16b6	-0.007265891
109	0xbdfb5543	-0.12272122
110	0x3d9fc932	0.07802047
111	0x3d7076d0	0.05870706
112	0x3d1348ce	0.035958104
113	0xbcbf5599	-0.023356246
114	0xbdeee39f	-0.11664509
115	0x3d9a46ec	0.075330585
116	0xbbd23713	-0.0064152568
117	0xbcec96fb	-0.028880587
118	0x3b943610	0.0045230463
119	0xbcbe257b	-0.023211231
120	0x3c19f46e	0.0093966555
121	0x3d12bbf2	0.03582377
122	0x3c4af9cd	0.012388659
123	0x3dbb0e84	0.09133628
124	0x3d55d037	0.052200522
125	0x3cb68d68	0.022284225
126	0xbd8b823a	-0.06811948
127	0xbcc569ba	-0.024098266
128	0x3ca5203b	0.02015697
129	0xbc8ef81e	-0.017452296
130	0xbc04d25b	-0.008106793
131	0x3dda9e6d	0.106747486
132	0x3d802549	0.062571116
133	0x3cefc1eb	0.029267272
134	0x3dc4aac7	0.09602886
135	0xbd53ff5d	-0.051757205
136	0xbd38edaf	-0.045148548
137	0x3bdfdce1	0.0068317507
138	0x3e026b77	0.12736307
139	0x3deaa37b	0.11456963
140	0x3d695f34	0.05697556
141	0x3d6bd872	0.057579465
142	0x3db80743	0.0898576
143	0xbbaed2ac	-0.0053351726
144	0xbe023095	-0.12713845
145	0xbd6ff216	-0.05858048
146	0xbd855f21	-0.06512285
147	0xbc001aee	-0.007818921
148	0x3dca7ef4	0.09887496
149	0x3d3b4dac	0.04572837
150	0x3e043c16	0.12913546
151	0x3d72fadd	0.059321273
152	0xbca0ae22	-0.019614283
153	0x3dcec7ef	0.10096728
154	0xbd3da90e	-0.0463038
155	0x3d9f23cf	0.07770502
156	0x3d1654a7	0.036701825
157	0x3cbe463e	0.023226853
158	0xbbf13531	-0.0073610772
159	0x3da8ba5d	0.08238671
160	0xbdb5cf87	-0.08877473
161	0xbdc1a273	-0.09454813
162	0xbd92d951	-0.07170356
163	0xbdf24cf7	-0.11831086
164	0x3df2e406	0.11859898
165	0xbb8aefea	-0.0042400258
166	0x3cceab47	0.025228156
167	0xbcd4b9db	-0.025967529
168	0x3d9ff1ae	0.078097686
169	0xbd290009	-0.0412598
170	0xbc685571	-0.014180527
171	0xbd3a394e	-0.045464806
172	0x3d73c225	0.059511323
173	0x3c588b8b	0.013216863
174	0x3cd4aa08	0.025959983
175	0x3d27e4be	0.04098963
176	0xbe10913a	-0.141179
177	0xbdd1057d	-0.10206125
178	0x3e0303c7	0.1279441
179	0xbc200317	-0.009766362
180	0x3d93db2b	0.07219537
181	0x3dcdb18b	0.10043629
182	0xbd1a9a09	-0.037744556
183	0x3d11f15e	0.035630576
184	0xbd8beba8	-0.06832057
185	0xbdf54dde	-0.119777426
186	0xbd2cf0e3	-0.042221915
187	0xbc8114a0	-0.015756905
188	0x3c0e2085	0.008674745
189	0x3dfd8092	0.123780385
190	0xbdcf0d0e	-0.10109912
191	0xbd83f1e3	-0.064426206
192	0xbd512c13	-0.051067423
193	0x3dc6d785	0.09709076
194	0x3c588600	0.013215542
195	0xbdbd01b6	-0.09228842
196	0x3e1d33e6	0.15351829
197	0xbcec2f74	-0.028831221
198	0xbd458c7b	-0.048229676
199	0xbcd38edf	-0.025824962
200	0x3de8f618	0.11375064
201	0x3d4db03c	0.0502169
202	0x3a4920d5	0.0007672434
203	0x3db3da35	0.08781854
204	0xbc6d4065	-0.014480685
205	0xbc7f931d	-0.015599039
206	0x3dfa1c72	0.12212457
207	0x3d0e1a91	0.034693304
208	0xbd28c316	-0.041201673
209	0xbc2d8cab	-0.01059262
210	0xbbe4f6cb	-0.006987428
211	0xbde1b1fc	-0.11020276
212	0xbe138077	-0.14404474
213	0x3cc48fe0	0.023994386
214	0x3dd91496	0.105996296
215	0xbd21a7e1	-0.039466742
216	0xbcfe1cec	-0.03101965
217	0x3d0d1069	0.034439478
218	0xbd93f430	-0.072243094
219	0xbc4740b8	-0.012161426
220	0xbd511c85	-0.05105259
221	0x3dca6fb2	0.098845854
222	0x3d42d0fa	0.047562577
223	0xbbc61be8	-0.006045807
224	0x3df834fd	0.12119482
225	0xbd68f034	-0.0568697
226	0x3c571374	0.013127197
227	0xbcb15382	-0.021646265
228	0xb9dc56bd	-0.00042026295
229	0xbd53169b	-0.05153523
230	0xbc6388d2	-0.013887601
231	0xbc819208	-0.015816703
232	0xbddab4f1	-0.10679043
233	0x3b58fb9d	0.0033108958
234	0x3d677a51	0.056513134
235	0xbd9c35a5	-0.076274194
236	0xbddbe865	-0.10737685
237	0x3dfb9b85	0.12285522
238	0xbcae42d0	-0.021272093
239	0xbd8a8396	-0.06763379
240	0x3bb4d054	0.0055179987
241	0x3bd2c8ca	0.0064326273
242	0xbc17966f	-0.009252175
243	0xbd783a19	-0.06060228
244	0xbd29593f	-0.041344877
245	0xbdc97074	-0.09835902
246	0xbc8b9d1c	-0.017042689
247	0x3d80e107	0.062929206
248	0x3d9976df	0.07493376
249	0x3d176b02	0.036967285
250	0xbd9dd27d	-0.07706163
251	0xbda53757	-0.08067196
252	0xbd7978ce	-0.060906224
253	0xbd2fa85d	-0.042885173
254	0x3def95ad	0.1169847
255	0x3c707de6	0.014678454

lstm.bias_ih_l1 f4 [512]
0	0xbc732ac7	-0.014841742
1	0xbd714a2d	-0.05890863
2	0x3e0c2a96	0.1368812
3	0x3d33da1d	0.04390918
4	0xbc93fc70	-0.018064708
5	0x3da204c9	0.07911069
6	0x3e1e36e5	0.15450628
7	0xbd8e0f61	-0.06936527
8	0x3ca7d52a	0.020487387
9	0xbd5a2c0d	-0.053264666
10	0x3da3a241	0.07989932
11	0x3e0268b9	0.12735261
12	0xbd5e10b4	-0.054215148
13	0xbdc5dfb3	-0.09661808
14	0x3df91243	0.12161686
15	0x3dc67d21	0.09691835
16	0x3cde5153	0.027138388
17	0x3dd34eed	0.10317788
18	0x3d5b8ffa	0.053604104
19	0xbd35626e	-0.044283323
20	0x3d7748fa	0.06037233
21	0xbd1a8064	-0.0377201
22	0x3daf733e	0.085669026
23	0xbcefd0b8	-0.02927433
24	0xbcbf71a9	-0.023369627
25	0x3d5ef229	0.05443016
26	0x3d67aaf9	0.056559537
27	0xbcf4ef92	-0.029899392
28	0x3c922606	0.017840397
29	0x3da1bd3a	0.0789742
30	0x3d91a8c6	0.07112269
31	0x3d6a6dc8	0.0572336
32	0x3d8547ca	0.06507833
33	0x3e0a92ff	0.13532637
34	0x3de381d8	0.1110875
35	0x3c6fb6b6	0.014630964
36	0xbc6f865f	-0.014619439
37	0x3ddb61a9	0.107119866
38	0xbd3ee273	-0.046602678
39	0x3e04c453	0.12965517
40	0x3d717dd4	0.05895789
41	0xbd954804	-0.072891265
42	0xbd927e93	-0.07153048
43	0x3cc464a5	0.023973772
44	0x3d42109f	0.047379132
45	0xbd8ea75e	-0.069655165
46	0xbd0ac8ab	-0.03388278
47	0x3da0c24f	0.078495614
48	0x3d76bbdd	0.060237754
49	0xbd17fd6b	-0.037106913
50	0x398dedbf	0.0002707075
51	0x3d09d226	0.03364768
52	0x3e389335	0.18024905
53	0x3cb663ce	0.022264387
54	0xbd348d70	-0.044080198
55	0x3d705583	0.0586753
56	0x3ca25566	0.019816112
57	0x3db51611	0.088420995
58	0x3d6b69a9	0.057473812
59	0xbd24493f	-0.040108915
60	0x3d93cc96	0.07216756
61	0xbd715e68	-0.058927923
62	0x3dd43990	0.10362542
63	0x3d758380	0.05993986
64	0x3d81d640	0.06339693
65	0x3ccf9ebe	0.025344249
66	0x3d77f796	0.06053885
67	0x3d30c726	0.043158673
68	0xbd21ea1b	-0.0395299
69	0x3be34199	0.00693531
70	0x3dab9054	0.08377138
71	0x3de3b341	0.11118174
72	0x3d6b8866	0.057503127
73	0xbb4ebd35	-0.0031545882
74	0x3cfc7682	0.030818228
75	0x3d930300	0.071783066
76	0xbd91c3ca	-0.07117422
77	0x3de6bec6	0.11266856
78	0x3be34b7a	0.0069364877
79	0xbd7db853	-0.061943363
80	0x3cc623fa	0.024187077
81	0x3dc78720	0.0974257
82	0x3cb6a56f	0.022295682
83	0xb8a58a32	-7.893554e-05
84	0x3e1382e1	0.14405395
85	0xbda6d1ce	-0.08145486
86	0xbd8b7be1	-0.068107374
87	0x3d49fc2a	0.049312748
88	0x3e26c5a8	0.16286337
89	0x3c8bb213	0.017052686
90	0x3db21ccb	0.08696898
91	0x3dda833e	0.10669564
92	0xbcd990e8	-0.026558354
93	0xbd69e59c	-0.05710374
94	0x3c0a18ce	0.008428765
95	0x3e01f0eb	0.12689559
96	0x3d236914	0.039895132
97	0xbdd8be4a	-0.1058317
98	0xbd41a910	-0.04728037
99	0xbd9e4256	-0.07727496
100	0xbcbe3346	-0.023217808
101	0x3cca0b3d	0.024663562
102	0x3dc0ed22	0.094202295
103	0xbcfc13da	-0.030771185
104	0x3df3d22f	0.11905324
105	0xbd8238a0	-0.063584566
106	0xbd5927fb	-0.053016644
107	0x3d54cfed	0.051956106
108	0x3cd7c5b9	0.026339399
109	0x3d933bc4	0.07189134
110	0x3df23b0b	0.11827668
111	0x3dcac2f9	0.09900469
112	0xbccc2f16	-0.024924796
113	0xbd61944f	-0.05507308
114	0xbd559db7	-0.05215236
115	0x3d1a6a05	0.037698764
116	0xbd8a343d	-0.06748245
117	0x3e045b06	0.12925348
118	0x3da39ad2	0.07988514
119	0x3d810f61	0.063017614
120	0x3d5da3b1	0.054111186
121	0x3d7355dd	0.059408057
122	0xbc3dd7d4	-0.011587102
123	0x3db4ebad	0.08834014
124	0x3bce1a96	0.0062897904
125	0xbd850c49	-0.06496484
126	0x3c94747e	0.018121954
127	0x3d06d6f3	0.032919835
128	0xbe076c55	-0.13224919
129	0x3d8923fa	0.06696315
130	0x3ce72a44	0.028218396
131	0xbdbf6eb8	-0.0934729
132	0x3b61ffbd	0.0034484707
133	0xbd7a4363	-0.06109942
134	0xbdcd7dc4	-0.100337535
135	0xbd52761e	-0.051382177
136	0xbe2dc9cd	-0.16971512
137	0xbdf2404b	-0.11828669
138	0xbd1e544f	-0.03865462
139	0xbe188c7f	-0.14897345
140	0x3c4f93eb	0.012669544
141	0xbdcf0264	-0.10107878
142	0xbcbc9cff	-0.02302408
143	0x3d769f3f	0.060210463
144	0xbdbc17f7	-0.091842584
145	0xbe15da17	-0.14633976
146	0xbd1c8ca1	-0.03822005
147	0xbd8ecb99	-0.06972427
148	0x3d8f10b2	0.06985606
149	0xbcc0d3f4	-0.023538567
150	0xbd8e653d	-0.069529034
151	0xbd891c15	-0.06694809
152	0x3d7ff082	0.062485225
153	0xbda709ba	-0.08156152
154	0x3b9c382b	0.004767438
155	0x3d78c490	0.06073433
156	0x3c858106	0.016296875
157	0x3d20b3af	0.03923386
158	0xbd7231c0	-0.059129477
159	0xbdf0ff38	-0.11767429
160	0xbdda216f	-0.10650908
161	0xbd858eec	-0.06521401
162	0xbddb6f93	-0.107146405
163	0xbd415d83	-0.04720832
164	0xbd89a458	-0.06720799
165	0x3d0cbb3d	0.03435825
166	0xbd1a61f1	-0.03769106
167	0xbe0ac43a	-0.13551417
168	0xbcf28a06	-0.02960683
169	0xbbaeece4	-0.005338298
170	0xbe0cc02c	-0.13745183
171	0x3cf1c57a	0.02951311
172	0xbdbb99b4	-0.09160176
173	0xbd7d48b7	-0.061836924
174	0xbda69e89	-0.08135707
175	0x3cd81552	0.026377354
176	0xbc2796ee	-0.010228856
177	0xbd163f22	-0.036681302
178	0x3d43ba89	0.047785316
179	0xbe296bfb	-0.16545098
180	0xbd5337c9	-0.051566873
181	0x3d876552	0.06611122
182	0xbd49f5bd	-0.04930662
183	0x3d797542	0.06090284
184	0xbd6775d7	-0.056508865
185	0x3ce028c9	0.027363198
186	0xbda1756d	-0.07883725
187	0xbdaf0a45	-0.08546881
188	0x3c1db3f3	0.009625423
189	0x3d27d2a4	0.040972367
190	0xbcdddd9e	-0.027083214
191	0x3d84a81e	0.06477378
192	0xbc3e8c18	-0.011630081
193	0xbdda04e2	-0.106454626
194	0xbd890268	-0.06689912
195	0xbd21c917	-0.039498415
196	0xbd27a845	-0.04093196
197	0xbce4d6f6	-0.027934533
198	0x3d08f4e3	0.033436667
199	0xbe0067ea	-0.1253964
200	0xbd25e6ad	-0.040503193
201	0xbda45991	-0.08024896
202	0xbda711e6	-0.08157711
203	0x3c6fb4b9	0.01463049
204	0xbddd78d2	-0.1081406
205	0xbda299c9	-0.079394884
206	0x3cfd98f9	0.030956732
207	0x3d1e041c	0.038578138
208	0x3cc030e3	0.023460811
209	0x3d0e4fb2	0.034743972
210	0xbda1f367	-0.079077534
211	0x3b8bbc12	0.004264363
212	0xbcf416e3	-0.02979607
213	0xbd014320	-0.031558156
214	0x3d45d30f	0.048296984
215	0xbdc554a9	-0.09635288
216	0xbb13f386	-0.0022575571
217	0xbd50b7a7	-0.050956395
218	0xbd0c25c3	-0.0342157
219	0xbd43caa4	-0.047800675
220	0xbde447f4	-0.111465365
221	0x3c841c9b	0.016126921
222	0x3ca5b64e	0.020228531
223	0xbe19a419	-0.15004005
224	0x3cba18e7	0.022716952
225	0xbda93357	-0.082617454
226	0x3c063af3	0.0081927655
227	0xbda769b9	-0.08174462
228	0xbdd9d386	-0.10636048
229	0xbcb2f4e6	-0.021845292
230	0x3d917290	0.07101929
231	0xbd8c4fcc	-0.068511575
232	0x3db32ec8	0.08749157
233	0x3d7de30f	0.061984118
234	0xbd95dced	-0.07317529
235	0xbde32edc	-0.11092922
236	0xbdd1d535	-0.10245744
237	0xbd6011a4	-0.054704323
238	0xbd8454cb	-0.064614855
239	0xbe01e95c	-0.12686676
240	0xbe28d1e6	-0.1648632
241	0xbda87aa6	-0.08226518
242	0xbe218aca	-0.157756
243	0xbdd518d0	-0.10405123
244	0x3d5c088c	0.05371909
245	0xbc30ceac	-0.010791462
246	0x3ace2d7a	0.0015730106
247	0xbdb60cd0	-0.088891625
248	0x3d7312f2	0.05934424
249	0x3b20c3b4	0.002453071
250	0xbd56425e	-0.052309386
251	0x3d97a14b	0.07403811
252	0xbdf4bf87	-0.119505934
253	0xbdb88aa7	-0.09010821
254	0xbe0672b6	-0.13129696
255	0xbcf4475e	-0.029819187
