models/best_rnn_delta.pt (torch, 205381 bytes, 10 tensors)

rnn.weight_ih_l0 f4 [128, 6]
00000000: 29bc 04be 9fde 273c 3de7 803c 6a74 8b3b
00000010: 36da 783c bf42 463e 1976 9dbc 8917 a1bc
00000020: 8a20 093d 95aa b2ba 5b9c 073e c11b 443e
00000030: 527f 1c3b 6b3a 343d 306d 56bd f532 6d3a
00000040: dfb4 d2be b080 44bd 1444 a2bd 8fc1 febc
00000050: f9bd d53c ea8a b7bc 1f70 313e 7541 21be
00000060: 873f 31bd fda5 95bb cd6f f73b d476 ccbd
00000070: 3bc3 923e 4e6d 513e 70ac 0f3d 75de 01bd
00000080: 106b 0abd 5c6d b3bc 488e 9ebe 6d8b 2c3d
00000090: 6682 06be af41 6dbb 325e 1bbd 2203 bbbd
000000a0: bf98 853b 0ead 93bd 70c6 273d 49b1 ac3c
000000b0: 3702 8abd ba83 bcbb db6b ee3c 9f36 76be
000000c0: d68c da3d 2b93 813b 6f0b 303d a887 733d
000000d0: 0b35 f5bd f954 86be 8862 01bd edbb ca3c
000000e0: d71a 5d3d 70d3 643d ec33 8e3d a4ee 56be
000000f0: 47bd b9bd 54f8 cd3c dd17 fdbc 7453 4e3d
00000100: 51d3 9cbe a4de 113d 3335 b93d fca1 e9bc
00000110: 9c59 91bc 93e6 f4bc 46b2 ff3d 6cbc 473e
00000120: b53f ab3d 567e fdbc fced 443a f6cb 9c3d
00000130: c0dc 043e 8866 3ebe 9171 963d baa3 1f3d
00000140: e8d1 83bd de1c afbd 21ae 3a3e eecf 37be
00000150: 7b18 e4bc b2d1 5abd b40f 293d 1d7f a0bb
00000160: 9b69 b4be 44f2 b53d 4136 c2bd aba5 df3c
00000170: 7b48 e2bc 5336 93bc b319 23be 2156 013d
00000180: a96e 99bd a52f 3fbc 0545 343d 4ef2 723d
00000190: 7c94 f73c 270e 323e c2c0 96bd 8ee6 2fbc
000001a0: 8f1c 5bbd b740 d53b 66b3 a5bd 8ca9 453e
000001b0: 21fc 223d 6b1c 453c 8b85 84bd 5be9 9aba
000001c0: a585 cd3e 8ee5 073e 0dea ccbd eeff 2ebd
000001d0: 9237 243d ce0e 433d e89b 4abe aeeb 083e
000001e0: c1e3 fbbd ce69 143d 3bcb cf3d 41be 993d
000001f0: 4508 c6bc ae19 b8bd 783e 8bbc 06d7 123d
00000200: 3b7e 043d 2b7e dabc 8bab 243e 1876 53be
00000210: fd5f 8cbd e7fd 6dbd 7c50 723d 2cf8 4ebc
00000220: 137d a4bd 5864 223e 61cd 883d deb9 9ebc
00000230: 8b19 013a f701 34bd a950 6fbe 28e6 45be
00000240: bb08 09bd e881 393b e80d 52bd 5704 213d
00000250: 4482 e6bd a347 f6bd 8459 16bd 77d9 3c3c
00000260: d579 80bd 2287 503c 0482 17be 43f5 01be
00000270: ac7c bb3d dccf 3abc 4f70 66bc b209 133d
00000280: 2b9b 9c3e a074 8abd e207 91bd d484 12bd
00000290: e9ec 413c baf0 233d 1e9a 3f3e dc7b 1fbe
000002a0: 7fe1 dc3b 7593 1ebd c845 623a 1034 0e3c
000002b0: c578 2fbe dc23 5bbe efb4 883d c65e b3bd
000002c0: 7b56 a13c 1696 20bd a846 513e 4ac5 553e
000002d0: a2f9 9f3d 9226 e7bc 9795 023d 04bb 11bb
000002e0: 2058 053d dce7 4abd f1b9 8cbd d159 47bd
000002f0: 8890 5e3d 1195 8bbd 8f13 71bc 0c0b 02be
00000300: a1e3 00bd 4d29 d7bc 00c5 8b3d 14aa 45bd
00000310: c976 ebbb eb70 96bd c69e 7f3c 0108 823c
00000320: 2835 8bbd b84f 9abb 0de4 983e 9c1b 99bd
00000330: 7537 a5bd b493 873d 4254 bd3c 1801 2dbd
00000340: 0c9c 2bbe c1e0 593e 6fad eabc 5edd 09bd
00000350: 1278 473c b884 5c3d f222 4dbe a7d8 4dbe
00000360: 0782 86bd 8365 5abd f464 7d3c 1c39 45bd
00000370: 8da6 40be 8a83 193e 409e cabd 113c 9ebd
00000380: 326f c13c abd8 023d cf31 85bd 3073 ae3d
00000390: a313 cc3d a109 bebb aa74 c1bc 5ee9 5d3d
000003a0: 3b82 f5be e846 88bd 9fc3 32bc dac6 e7bc
000003b0: af2e 5ebd ffa8 87bd 7243 bb3e 1ca9 153e
000003c0: 9a86 323d e65d 9a3d e316 d83c 0195 86bd
000003d0: 21db 173d 8ec7 97be 1a67 65bd c457 bd3c
000003e0: aba7 4bbd 3bbb 97bc 9235 863e ef1c 4bbe
000003f0: 5fb3 41bd b214 8abd 39d7 56bb 150f b13d
-0.12962402 0.010245948 0.015735263 0.004255821 0.015188744 0.19361399 -0.019221352 -0.019664543
0.033478297 -0.001363116 0.13243239 0.19151212 0.00238796 0.044001024 -0.052350223 0.00090484257
-0.4115362 -0.04797429 -0.07923141 -0.031098155 0.026091563 -0.022405107 0.17327927 -0.15747626
-0.043273475 -0.0045669065 0.0075511695 -0.09983602 0.28664574 0.20451853 0.03507656 -0.031706292
-0.03379351 -0.021902733 -0.30967927 0.042125154 -0.1313568 -0.003620248 -0.03793163 -0.09131457
0.0040770466 -0.07210742 0.04096073 0.02108063 -0.06738704 -0.0057530077 0.029104164 -0.24044274
0.106713936 0.0039543114 0.042979654 0.059455544 -0.11973008 -0.26236704 -0.031588107 0.024747813
0.053980675 0.055865705 0.06943497 -0.20989472 -0.09069305 0.025142826 -0.030895168 0.050372556
-0.30629972 0.035612717 0.0904335 -0.028519623 -0.017742924 -0.029895103 0.12485175 0.19505471
0.083617605 -0.03094403 0.0007512269 0.0765609 0.12974834 -0.185938 0.0734588 0.0389745
-0.06436521 -0.08550428 0.18230487 -0.17950413 -0.027843704 -0.053422637 0.04127474 -0.0048979656
-0.3523682 0.08884099 -0.09483004 0.027300676 -0.027622452 -0.01797024 -0.15927772 0.03157628
-0.0749181 -0.011669074 0.044011135 0.05931311 0.03022217 0.17388211 -0.073609844 -0.010736121
-0.053494032 0.0065079588 -0.08090858 0.19302958 0.03979123 0.012030701 -0.06470784 -0.0011818813
0.40141025 0.13271162 -0.10005579 -0.042724542 0.04009206 0.04762154 -0.19786036 0.13371155
-0.122993 0.036233716 0.10146185 0.07506991 -0.024173865 -0.08989273 -0.01699756 0.035849594
0.032346945 -0.02667149 0.16081063 -0.20650518 -0.06854246 -0.05810347 0.059158787 -0.012632411
-0.080316685 0.1585859 0.06679798 -0.019375738 0.00049247657 -0.043947186 -0.23370613 -0.19326079
-0.03345559 0.002830619 -0.051282793 0.03931078 -0.11255315 -0.12025382 -0.036706463 0.011526457
-0.062732376 0.012727531 -0.14795691 -0.12691216 0.09154639 -0.011402097 -0.014064862 0.035897918
0.30587134 -0.06760526 -0.07081582 -0.035771206 0.011836269 0.040024497 0.18711135 -0.15574592
0.0067407484 -0.038714845 0.0008631614 0.008679405 -0.17135914 -0.21400398 0.06675135 -0.08758311
0.019694557 -0.039205633 0.2043711 0.20876041 0.078112856 -0.028216634 0.03188094 -0.0022236714
0.032554746 -0.049537525 -0.06871403 -0.04866964 0.054337054 -0.068155415 -0.014714136 -0.12699527
-0.031467084 -0.026264811 0.06824684 -0.048257902 -0.007185791 -0.07345756 0.015601819 0.015872957
-0.06797248 -0.0047092102 0.2986149 -0.07475969 -0.08067218 0.06619969 0.023111466 -0.04223737
-0.16758746 0.21277143 -0.028647153 -0.033658378 0.012174623 0.053837508 -0.20032862 -0.20102178
-0.065677695 -0.053319465 0.015465964 -0.048150167 -0.18813534 0.14991584 -0.09893465 -0.077263005
0.023612592 0.031944912 -0.06503641 0.08518064 0.09964683 -0.0057994877 -0.0236152 0.054177634
-0.4795092 -0.06654149 -0.0109108975 -0.028293062 -0.05424374 -0.0662403 0.36574894 0.14615291
0.043585397 0.07537441 0.0263781 -0.06571389 0.037074212 -0.29644436 -0.05600653 0.023113139
-0.049720448 -0.018521896 0.26212746 -0.19835256 -0.047290202 -0.067422286 -0.0032782091 0.08645455

rnn.weight_hh_l0 f4 [128, 128]
00000000: 9f2c 61be 5b87 953c e985 27bd 3d8a 64bd
00000010: b876 99bd 23ad 6abd 9db3 543d 258e 2ebd
00000020: 947e 713a 37a2 42bd ea07 743c fadf 993d
00000030: ae93 31ba 671c 9b3d 24ef b5bd 7690 543a
00000040: 3aba 283d cff4 bf3c 54d4 f3bc b0b6 f53c
00000050: df46 2fbd 0d8c 093d 2585 6d3c b3fe 84bd
00000060: 62c6 853d ac63 22bd 852c cebd 29d2 93bd
00000070: bbc8 c0bd 7b97 c33d 6fe5 8a3d 4e60 6a3c
00000080: e17b 03bd 338e b43c fd23 8dbd af8f dbbc
00000090: 03e7 2fbc 545f 2b3d cbec 953d 99f3 e03d
000000a0: 5eee d13d fbad 9c3d 46a6 573d 8e1b d2bd
000000b0: a6f2 693c 1c21 943c 7636 73bd a8c1 a93c
000000c0: f66d 283c 0a1d 023d 908b 8b3d c581 c0bc
000000d0: 910e abbd ba17 a13b 71e6 9f3c ff4d 173c
000000e0: d1a3 993d f993 9fbd f72f a5bd 54c3 1ebd
000000f0: 2445 4d3d 5ad1 203d 45f5 9b3d 1f27 43bd
00000100: 4a83 b13b da48 293c f6dd 3bbd cc44 a73d
00000110: 3472 0fbd b3cd 4a3c 9cd1 373d 6eed f03c
00000120: fdca 8dbd dd17 e43b 2bcb 0b3b 8588 103d
00000130: a3b8 edbb a29d febc fa6c 123a 2984 ae3c
00000140: 69c1 20bb ad2e 35bc 00e0 84bd 663b 453d
00000150: 7c00 e53c 2cca 863c f126 973d b902 053d
00000160: 8f1e fe3c 99eb 903d b107 d7bd d82b 32bd
00000170: 3b21 c2b9 9f72 33bd d69b 6fbc 54bb e43c
00000180: 408f 80bd 6be9 3ebd 3059 01bd d584 403d
00000190: 20a9 1dbc a449 a33c 6e83 1f3c 9737 8d3d
000001a0: 0ae2 f538 f108 55bd f7af 853c f3cc 9ebd
000001b0: 4d05 52bd 3f71 4c3d 3ce9 0a3d afdf 033c
000001c0: 4f52 c93c 3f08 8cb8 294b 9d3d 6e8c 47bd
000001d0: e0fa dbbd 1d76 b4bd bf5f af3d 912e 76bd
000001e0: 0d52 18bc 2a52 9f3d cf56 49bc c5a5 eabc
000001f0: bca0 a93d cde0 d2bc 2559 7f3c ebc2 863d
00000200: adb1 dc3b 0739 b13c 0c26 de3c d27c 8ebd
00000210: 0a04 42bc 845b ad3c 384b b0bc 20bc 23bd
00000220: f3e5 d73d 6527 0dbd 9ac9 ef3b 5f7d 88bd
00000230: 4200 963c d4f9 5a3c 3810 c43d e37a 93bc
00000240: 32a2 e33c b703 d63c 6381 aa3b 7d8b cdba
00000250: 687a 7e39 0954 70bd fbdb 8dbc 7c58 2ebc
00000260: 1e95 843d 6138 973c 8cec 8d3d b87c 9dbd
00000270: ad14 28bd 57ad 08bd 0aa3 0d3d 1875 a2bd
00000280: ff44 bf3d 9700 783d 7d2a abbc 80f6 a33c
00000290: 5fca e53b ffdf dc3b 3d1b e13c 017c d2bc
000002a0: 997f c63c 124b c8bd 5858 2bbd 51de b73b
000002b0: db54 ab3c c959 c33d 4660 843c 7f3e bfbc
000002c0: afa7 cd3c 7201 d0bc 13f6 71bd fcec 563d
000002d0: 4f24 483c 3402 8e3a 596d b8bd 17e2 543d
000002e0: 2557 f53b 7fef 4bbd 88fc 8339 28cc d2bc
000002f0: fcbe 673c f7d0 a0bd 6455 073d 8a8c 1ebc
00000300: d41b 06bd c0bc 633d bfa5 6dbc 2013 53bd
00000310: ba83 8abd 4d49 9d3d e24e c4bd 6593 afbd
00000320: 1256 adbd 33f5 4d3c a36d 3c3d a78d 153d
00000330: 3549 743c 813f db3c 8b51 3cbd 08e5 b1bc
00000340: 6807 9b3d c570 013c 4b13 413d 828d 68bd
00000350: 5836 69bd ec1d bc3d e2e3 a6bc 3c6b 45bd
00000360: 5815 2fbd e7e6 80bd 0772 a83d 0d0a 97bd
00000370: dba0 3f3d fa50 9abc 5010 50bd 2364 b9bd
00000380: f571 a43d 50db 803c a156 c9bd 06cf 7fbd
00000390: 3e47 213d 2bcb 74bd 980a a73d b8cd e3bb
000003a0: a4f8 a03d cc91 913c 546f 46bd 3daf b83c
000003b0: 6520 f83c 08b0 143d f628 3dbd 896a cc3c
000003c0: 549a aa3c 24fb 1ebd 663d 68bd 03d9 633d
000003d0: 0dc6 813d dc65 c7bd d99e 0cbc f7d9 3f3d
000003e0: 6523 653d a336 a13c ad1f 20bc 0fe5 503d
000003f0: ede9 893d b7a9 9d3d b635 3b3d 36db f6bb
-0.21989678 0.01825302 -0.04089919 -0.055795897 -0.07493347 -0.057294022 0.051929105 -0.04261603
0.0009212282 -0.04751798 0.014894465 0.07513423 -0.000677402 0.07573777 -0.08883503 0.00081086846
0.041193224 0.023432164 -0.029764332 0.029994339 -0.042792197 0.03358083 0.014497076 -0.064938925
0.06531979 -0.039645836 -0.10067085 -0.07217819 -0.09413286 0.09550377 0.06782042 0.014305187
-0.032100562 0.022040462 -0.0689163 -0.026801912 -0.01073623 0.04183896 0.07320555 0.109839626
0.10250543 0.07650372 0.052648805 -0.10259162 0.014279043 0.018082194 -0.05937811 0.020722225
0.010280123 0.031765975 0.06813729 -0.023499379 -0.08352388 0.0049161585 0.019519063 0.009234904
0.075019486 -0.077918954 -0.08065789 -0.0387605 0.050114766 0.039262153 0.07615141 -0.04764473
0.005417262 0.010332311 -0.045865975 0.08167419 -0.035021022 0.012378144 0.044877633 0.02941009
-0.069234826 0.0069608525 0.0021330814 0.035286445 -0.0072546764 -0.031081025 0.0005585697 0.021303253
-0.0024529344 -0.011058492 -0.06488037 0.04815235 0.027954333 0.016453825 0.07380474 0.0324733
0.03102043 0.07076187 -0.10499514 -0.043498844 -0.00037027322 -0.043810483 -0.0146245565 0.027921356
-0.06277323 -0.046609323 -0.031579196 0.04700168 -0.009622842 0.019932576 0.009735925 0.068953685
0.000117246134 -0.05201048 0.016319258 -0.07753935 -0.051274586 0.049912687 0.033913836 0.008048936
0.02457538 -6.677256e-05 0.07680351 -0.04871791 -0.1074121 -0.08811591 0.08563184 -0.060103003
-0.009296906 0.077793434 -0.012288763 -0.028643498 0.08282611 -0.025741959 0.015585219 0.065801464
0.006735048 0.021633638 0.027117752 -0.06957401 -0.011841783 0.021161802 -0.021520242 -0.03997433
0.10541906 -0.034461398 0.007317734 -0.06664538 0.01831067 0.013365228 0.09573406 -0.018002933
0.027787302 0.026124818 0.0052034124 -0.001568183 0.00024268928 -0.058673892 -0.017316809 -0.0106412135
0.06473754 0.0184595 0.06929883 -0.07689804 -0.041035343 -0.033368435 0.034579314 -0.0793249
0.09339332 0.060547438 -0.020894283 0.020015001 0.00701265 0.0067405696 0.027478809 -0.025693895
0.024230765 -0.097799435 -0.041832298 0.005611219 0.020914486 0.095386095 0.016159188 -0.02334523
0.025104372 -0.025391314 -0.059072565 0.0524721 0.012215688 0.0010834397 -0.090052314 0.05197343
0.007487195 -0.04978895 0.00025174418 -0.025732115 0.014144655 -0.07852357 0.03304042 -0.009677062
-0.032741383 0.055599928 -0.014504849 -0.05153191 -0.06763406 0.07679997 -0.09585358 -0.08573035
-0.08463682 0.012570667 0.046002995 0.036512043 0.014910032 0.02676368 -0.045976203 -0.021715656
0.07569772 0.0079004215 0.04713754 -0.056775577 -0.056936592 0.09185395 -0.020372335 -0.04819797
-0.042744964 -0.06294041 0.08224874 -0.07374964 0.046784263 -0.01883744 -0.050796807 -0.09052303
0.08029548 0.015729576 -0.09830976 -0.062453292 0.039374582 -0.05976407 0.081563175 -0.006952014
0.078599244 0.017769717 -0.048446015 0.022544498 0.030288884 0.03630069 -0.04618164 0.024953144
0.020825543 -0.038813725 -0.05669918 0.05562688 0.06336603 -0.09736225 -0.008582794 0.046838727
0.055941958 0.019679373 -0.009773177 0.050999697 0.06734071 0.07698386 0.04570552 -0.007533456

rnn.bias_ih_l0 f4 [128]
00000000: ddc7 143d a2b0 84bd 4cb9 c83d 7b52 eebb
00000010: 8cb4 ad3c 7855 a23d bd0b ae3d a36b 8f3d
00000020: cceb 23bd 4b2f 08bd bfe2 9f3d 4e84 4abb
00000030: 07c4 2cbd 71b9 9d3d d92a 1b3d b54f 0c3d
00000040: b648 8dbc 919e 523c 67b7 d8bd cb95 92bb
00000050: e3e7 fcbc 7169 3ebd 418b d93c ce13 d93d
00000060: 6b12 a53c 87bd 833d 3787 a4bd b469 6c3d
00000070: b67d b93d ba7a 4ebd 532d 36bd 56ec 043d
00000080: f06f aabc 8ed9 373d e82c 99bd fdd9 9c3d
00000090: 0850 1c3d 2a92 153d 7b7f 4d3d 26ab 3fbd
000000a0: 8434 e03b e91a b13c b336 b63d d3b7 66bc
000000b0: d89d bb3c 8183 9d3d 2cf0 cfbd a062 903d
000000c0: bb2f 6c3d 1104 8bbd 02a4 06bd 94a7 6bbc
000000d0: cff6 8e3d dfce 19bc 209f 35bb 5c6f f4bc
000000e0: 1e72 e5bb 32b6 7e3d b50e c6bc 4cf5 793d
000000f0: ee40 663c 6913 943d 387e c2bd a916 f03d
00000100: d4ec 433c 6d21 be3d 2d88 383d 6018 e6bc
00000110: 6741 983d 08ff 0ebd 8656 983d 8f40 6bbd
00000120: d57c a63d fbab 3dbc 3626 a0bc d4b0 a1bd
00000130: 4161 8b3c 5f4f dcbc f24c 20bd d09c a5bc
00000140: a174 b73b e747 e0ba 0439 9dbc 4a69 653c
00000150: 8f44 9c3d 841b 7a3c 9c83 60bd 9685 973d
00000160: d2bd aa3c 0baa 5d3d 427b a1bd 2876 1ebd
00000170: dc90 04bd bae5 bebd 266d 23bd 45fb 4e3c
00000180: 1b75 a13d 2d36 b73b 0605 dabc 899e c8bc
00000190: 852e 953c c96c 3fbd c1bb 223d df62 8ebd
000001a0: 563c a0bd 3d28 71bd b827 90bd 43e9 fdbc
000001b0: a627 cfbb 5348 0abd bca3 0b3d e92f 89bd
000001c0: 03e6 493c 0bc6 2e3d af18 4f3d fec0 953d
000001d0: fd95 263d 13ca 90bd 4b0c 48bd 0fe4 b2bc
000001e0: 24c4 c9bd de39 b93d c7bf 84bd 5f54 8d3d
000001f0: f14c a0bd 2e41 c0bd bb3f 663c 5eb0 473d
0.036323417 -0.064790025 0.098009676 -0.007273016 0.021204256 0.07926458 0.08498333 0.07002952
-0.040019795 -0.033248227 0.0780692 -0.0030901614 -0.042179134 0.07701386 0.03788266 0.034255702
-0.017246585 0.012855188 -0.10581856 -0.004473423 -0.030872291 -0.046487276 0.02655566 0.105994806
0.020150384 0.06432634 -0.08033603 0.057717994 0.090571806 -0.05041001 -0.04447682 0.03245195
-0.02080533 0.04488521 -0.07479268 0.076587655 0.03816226 0.036516346 0.050170403 -0.04679408
0.006842198 0.021619277 0.08897152 -0.014081913 0.022902414 0.07691098 -0.10153231 0.07050061
0.057662707 -0.06787885 -0.032871254 -0.014383215 0.06980669 -0.009387701 -0.0027713254 -0.029838257
-0.007002129 0.062185474 -0.024176935 0.06102495 0.014053566 0.07230265 -0.094967306 0.11723072
0.01195832 0.09283719 0.045051742 -0.028087795 0.074343495 -0.034911186 0.07438378 -0.057434615
0.081292786 -0.011576648 -0.01954947 -0.078950554 0.017014148 -0.026893316 -0.03913588 -0.020216376
0.00559862 -0.0017111272 -0.019192226 0.014002154 0.07630264 0.015265349 -0.054813012 0.07398526
0.020842467 0.054117244 -0.07884838 -0.0386869 -0.03236471 -0.093211606 -0.039899014 0.0126331495
0.07883664 0.005591175 -0.026613723 -0.024489658 0.018210659 -0.046734605 0.039729837 -0.06952452
-0.07824008 -0.058876265 -0.07038826 -0.030995017 -0.006321865 -0.03376038 0.034091696 -0.06698591
0.0123229055 0.042669337 0.05056065 0.07312201 0.040670384 -0.070697926 -0.04883985 -0.021837262
-0.09851864 0.090442404 -0.06481891 0.06900858 -0.078271754 -0.09387432 0.01405328 0.04875218

rnn.bias_hh_l0 f4 [128]
00000000: 6e14 7fbd 2243 80bd 8a71 c73c cb7b b63d
00000010: 16fc d4bd 1166 c53c 07f3 be3d c913 853d
00000020: 2996 b43d 8881 573d 7cb5 a53b 487f c8bd
00000030: 8e90 9fbc 4ccc 37bd bf3d 583d 4f79 a53d
00000040: ef9b 9cbd 57ab 973b dc3b d3bd 9e21 573d
00000050: 6118 e63c 3d4d 713b dae2 333d a6f3 5d3d
00000060: b567 ac3d b0ea 8a3d df4f febc 7672 2fbd
00000070: f06b b03d 47bb 7fbd d5e1 e33b 10fc ec3d
00000080: 5d51 893d 74a0 bcbd 7734 403d 9c7e 523d
00000090: 20ea 703d e148 2f3d 735f 113d 3171 6dbd
000000a0: 2e3d 813d 03e3 963b 59ab 46bd 5207 8a3d
000000b0: a2d6 d3bd f655 d6bc 19ed 0bbd 776b 8ebd
000000c0: d98d d1bc b5f6 37bd a2f8 a2bd af93 c03d
000000d0: eaf8 86bd 17e1 93bc 96c8 c23c 9fdc 41bc
000000e0: fe27 cf3d c4b9 543c 6f34 f7bc 591a 94bd
000000f0: c4ba 4e3d a8f2 443d 4409 86bd b17f fa3c
00000100: 8e2c 703d 97aa 49bd 6206 3fbd e20c 2d3c
00000110: 2f61 83bb 8296 c2bc 3f98 2a3d 473f 123d
00000120: 7e1f 913d cad5 133d e220 88bc 6d67 22bc
00000130: f3b8 ef3b e11c cebd 0408 46bd 0c29 00be
00000140: a058 ab3d 246a b9bc e0c2 33bd c2b1 cbbc
00000150: 16e9 ce3c b631 853d 506a 93bd 6692 ba3d
00000160: ed6e 0a3d 7eac 84bd 31f5 f43c 198f 733c
00000170: f7fe 323d f875 993d 17b1 2fbd 1fdd d63c
00000180: d850 bb3c 35f2 0abd de0b f9bc 7cac 5bbd
00000190: 5546 45bc 50ff 02bc 6342 7c3c e48e 04bd
000001a0: 4c93 33bd dc27 91bd 0867 70bd e422 0ebe
000001b0: 7f89 7abc 69eb 34bd aff0 4fbd af4a 04be
000001c0: cd29 82bd d291 c03d ce5d 4e3d cb2a ad3d
000001d0: 85cb b23d f299 003c 76a4 0c3d 32c4 97bd
000001e0: 3957 66bc 62b4 ae3c e3de 8a3c f985 423c
000001f0: f356 97bd d6af 51bd d99b d0bd e1ea ff3c
-0.062275343 -0.062628046 0.024346132 0.089103304 -0.10399644 0.02409652 0.093236975 0.06497914
0.08817703 0.052613765 0.005057035 -0.09789902 -0.019478109 -0.044872567 0.05279326 0.080797784
-0.076469295 0.0046285796 -0.10314152 0.052522294 0.028087797 0.003681972 0.043917514 0.05418744
0.08418218 0.06783044 -0.031043945 -0.042833768 0.086143374 -0.06243446 0.0069544115 0.115715146
0.06704972 -0.092102915 0.046925034 0.051390275 0.05881703 0.042794112 0.035491418 -0.057969276
0.06310497 0.0046046986 -0.048503254 0.067396775 -0.10343672 -0.026164036 -0.03416166 -0.06954091
-0.025580334 -0.044913013 -0.07957579 0.094031684 -0.06590445 -0.018051667 0.023777287 -0.011832385
0.1011505 0.012983743 -0.03017637 -0.07231588 0.050471082 0.048082978 -0.06544736 0.030578466
0.05863624 -0.049234953 -0.046636946 0.0105621535 -0.004009388 -0.023753408 0.0416491 0.035704877
0.07086085 0.036092557 -0.016617242 -0.009912354 0.007315749 -0.10064102 -0.048347488 -0.12515658
0.08366513 -0.02263362 -0.04388702 -0.024865035 0.025257628 0.06503622 -0.07198012 0.091099545
0.033797193 -0.06478213 0.029902073 0.01486566 0.043700185 0.07493204 -0.042893495 0.026228486
0.022865698 -0.033922393 -0.030401167 -0.05363129 -0.012040694 -0.007995442 0.015396687 -0.032362834
-0.043841645 -0.07087681 -0.05869201 -0.13880497 -0.015291571 -0.044169817 -0.050766643 -0.12919115
-0.06355629 0.09402813 0.050382428 0.08455428 0.087302245 0.007849203 0.03433653 -0.07410468
-0.014058881 0.021326248 0.016951984 0.011872762 -0.07389631 -0.05119308 -0.101859756 0.031239929

rnn.weight_ih_l1 f4 [128, 128]
00000000: a584 93bd 6d31 42bd 0e47 b13e f36e 5dbe
00000010: 3b12 66be 5253 f13d ac6d a2bd 8d5a f03d
00000020: 0b9a bb3e bf62 e8bd 516b 2b3e 10eb 203e
00000030: ddeb a83c a549 d3bd 2326 173e 5f97 673d
00000040: 82b2 1fbd 3d80 f6bd a9f9 7ebe 19cf 6b3c
00000050: 33b3 a5be 139c 03be d81b 333d 5800 d73d
00000060: 79d7 3f3d c622 d7bc 55d2 b7bd 804f bdbe
00000070: 97cf bf3c cb18 56bd 254d 07bd 39e1 19bd
00000080: 5255 c1bb bb4c 5bbe 937f b9bd 6402 b13e
00000090: f197 633c 6a28 5bbc 968d bd3e 620a 79be
000000a0: dfb5 123b 917f 69be 6b31 d23d 19b6 82be
000000b0: c329 2c3d a8b4 1f3e 9ccc f6be 8fc8 d3bd
000000c0: bde0 d6be b24e 55be f4b6 3bbe aab2 12be
000000d0: 6e89 b2bd c9bb 83be 0fed 94bd 4e07 13be
000000e0: a524 2a3e f528 07be 5fa1 14be bec2 cc3d
000000f0: fa48 d43e b8e8 8fbc b5b9 743e 5398 a43c
00000100: bce8 803e e5ed 723e abb5 52bd d321 2fbe
00000110: d9ad 413e e2ea 59bd f0ab a43e 09d4 1e3e
00000120: ce16 d23c f916 84be 0630 723d 679d 09bd
00000130: 886b 533e 205b 52bd d4db fa3d 1548 04bf
00000140: 3945 b93e 3374 e23d ae1f 89bd 06c8 03be
00000150: e95a 023e 88ab 27bd 4e1a 36be 4474 e5bc
00000160: f92a 2fbd 839b 323e a177 693e f3eb 873e
00000170: a45a 843c 36a9 3b3d 7249 0fbd 5978 533b
00000180: 1f7e a23e a5d4 5a3d 4393 1a3d 12f8 5abe
00000190: 90d1 163e 0e69 1bbe 4c74 af3e 757c 7cbe
000001a0: ffe0 09bc 311d 80be 49da 83be 7a30 a7bd
000001b0: cb5a e4be c84e 0fbf ac31 173c 8642 423d
000001c0: d65c 37be 4ad5 c6be 9756 fb3d 962a 073e
000001d0: 0e0a 0b3e 26d5 71be 4c70 8f3e 3674 b03d
000001e0: 1b9c 673e d69a b8bd 9796 a3bc 89c0 013d
000001f0: 718f b6bd cf7c f83d 400c f4bd 1424 193e
00000200: 2f74 c63d a2bf 2abe f8df 013f 04c6 b1be
00000210: 1350 2bbe a4b5 803e 7bcf 013d db13 62bd
00000220: 8fdb 053d dfb0 13be ca40 f53e a7a6 2bbe
00000230: 7d62 b2bd 0b12 98be ee1d 023f f6b1 7e3e
00000240: 5041 a63d f2e3 333e 5588 babe e514 863e
00000250: ff41 233e 8f41 08be 7065 853d 3cee 8c3e
00000260: 9afe 4f3e ed23 ad3c b520 dabe 7401 abbd
00000270: b3c3 663e 168d 98be 5ff2 80bd 67f7 81bd
00000280: 8b39 dd3c e40c b0be 5350 083e f60f 973e
00000290: bf4b 663e bfdd 5f3e de69 cb3e 6663 b9be
000002a0: 1fb2 c3bd acdb 9abe 5d7f c43d da3e 5ebd
000002b0: fcf3 03bd f1e7 cd3e 7df6 42be 34a9 243d
000002c0: 1558 f4bd 2d66 35be aa6f 5dbe 572a ddbd
000002d0: c467 173e 1161 42be 1a4d f9bd 91cf 78bd
000002e0: c5e0 f9bd 1a5d d0bd 54e0 90be 19d5 d63d
000002f0: c53e 813e e830 55bc 15c5 113e 04e1 303e
00000300: 9ade 183f 0544 773e 43bc 0dbe 22db 9ebe
00000310: f9fd ec3e ab69 b8bb 1bb6 1e3e 7fb4 be3d
00000320: a220 903e 7e61 c63d ce58 d83d 804c 8cbe
00000330: 258d c33d ca5c c0bd 5aba b03b ff3f ffbe
00000340: d4e9 d93d cec8 7fbd 2545 8dbd 2246 3fbe
00000350: c193 853e f71f c53b d2a9 9fbe e850 c13d
00000360: 6174 033e 265f c2bd 6ef4 593e 3a7c 9b3e
00000370: e8bd 13be 5fe4 b13d 9aeb 22bd 9830 5fbe
00000380: 59ff 89bd 4d60 7d3e 9fa5 543e fbe0 85bd
00000390: 51b3 dd3e 553f 88be 2cf6 e13e 545a 11be
000003a0: 3b6c 123e 8286 d9bd 7ddc ebbe eaeb 18be
000003b0: 7fef 6abe dcae a4be 6f74 b83d 53e2 2cbe
000003c0: b85f 95bd a6d8 25be 3900 b7bd 152d 803e
000003d0: 4ddf 193d 9733 c5be 5ffa 643e a0fb 5dbe
000003e0: 23e5 753c 2337 563d 748f abbe b69e df3a
000003f0: 1ac6 13bc 56df 023e 8322 edbe 6adf 8a3e
-0.07203034 -0.047410417 0.34624523 -0.21624355 -0.22467892 0.1178347 -0.079310745 0.11736021
0.36640963 -0.11346959 0.16740157 0.15714669 0.02062028 -0.10316781 0.14760642 0.056540843
-0.038988598 -0.12036178 -0.24899925 0.014392638 -0.3236328 -0.12852506 0.043727726 0.104981124
0.04683635 -0.026261698 -0.089756645 -0.36974716 0.023414416 -0.05226974 -0.033032555 -0.037568305
-0.0059000636 -0.21415989 -0.09057536 0.34572136 0.013891206 -0.013376335 0.37022084 -0.24320367
0.0022386236 -0.22802569 0.10263332 -0.25529554 0.042032015 0.15596259 -0.4820298 -0.10340988
-0.41968337 -0.20830801 -0.1833151 -0.14325967 -0.08717619 -0.25729206 -0.07271778 -0.14358255
0.16615541 -0.13199218 -0.14514683 0.099980816 0.41461927 -0.017567024 0.23898967 0.020092165
0.25177562 0.23723562 -0.051442783 -0.17102747 0.18913974 -0.053202517 0.32162428 0.15510572
0.02564564 -0.25798777 0.05912783 -0.033597376 0.20646489 -0.051356435 0.1224896 -0.5167249
0.36185625 0.110573195 -0.066954955 -0.12869272 0.12729992 -0.04093507 -0.17783472 -0.028009541
-0.04276559 0.17442136 0.22799541 0.26547202 0.016156502 0.04581567 -0.034982152 0.0032267778
0.31736848 0.05342545 0.037738096 -0.21383694 0.14728379 -0.15176794 0.34268415 -0.24656852
-0.00841546 -0.2502227 -0.25752476 -0.08163543 -0.4460052 -0.55979586 0.009228151 0.047426723
-0.17906508 -0.38834602 0.12272375 0.13199839 0.13578054 -0.23616466 0.28015363 0.086159155
0.22618143 -0.090139076 -0.019969268 0.031677756 -0.08914078 0.1213318 -0.11916399 0.14955169
0.09690129 -0.16674665 0.50732374 -0.34721386 -0.16729765 0.2513858 0.03169201 -0.055194717
0.03268009 -0.1442294 0.47900993 -0.16762792 -0.087101914 -0.29701266 0.5082692 0.24872574
0.08117926 0.17567423 -0.36432138 0.26187816 0.15943144 -0.13306259 0.06513488 0.27525508
0.20311967 0.021135295 -0.42603078 -0.083498865 0.22535591 -0.2979514 -0.062962286 -0.063460164
0.027004978 -0.34384835 0.13311891 0.29504365 0.22489832 0.21861933 0.39729208 -0.36208647
-0.09555458 -0.3024572 0.09594605 -0.05425916 -0.032215104 0.4021602 -0.1903934 0.040200427
-0.11930863 -0.17714758 -0.21624628 -0.10799091 0.14785677 -0.1898234 -0.12172909 -0.060744826
-0.122010745 -0.10174008 -0.2829615 0.10489864 0.25243202 -0.013012148 0.14235337 0.17273337
0.59714663 0.24147041 -0.13841347 -0.3102656 0.46287516 -0.005627831 0.15499155 0.09311771
0.28149897 0.09686564 0.10563813 -0.27402115 0.095484056 -0.09392698 0.0053933086 -0.49853513
0.10640302 -0.06244736 -0.06897954 -0.18679097 0.2608929 0.0060157734 -0.3118425 0.0943926
0.12837364 -0.094908044 0.21284649 0.30368215 -0.14427912 0.086861365 -0.03977547 -0.21795881
-0.06738157 0.24743767 0.20766304 -0.06537052 0.4330087 -0.26610819 0.44133127 -0.14194614
0.14299099 -0.106213585 -0.46066657 -0.14933744 -0.22942923 -0.32164657 0.09006583 -0.16883211
-0.072936475 -0.16195926 -0.08935589 0.25034395 0.03756647 -0.38515922 0.22361134 -0.21678019
0.015008244 0.052298676 -0.33507884 0.0017060849 -0.009019399 0.12780508 -0.46315393 0.27123576

rnn.weight_hh_l1 f4 [128, 128]
00000000: 2889 013e d9da 9f3c 2acb 253d c47a b53d
00000010: d678 2f3d ec30 7bbb 7dcd b3bc 497e 8e3c
00000020: e3e1 d53b 8cfd b13c 136d 3e3d 0e1c 84bd
00000030: e378 4fbe 2888 d0bd 41d9 b43d a563 133e
00000040: 693e 3c3c d608 01bd d1f1 54be d373 80bc
00000050: e134 e7bd 3679 07be c200 60bd 0162 c33d
00000060: 4edd 34be f4b1 d0bd f86d e93c 67a7 a93d
00000070: 0bec 963d 6e31 55bd fa84 8ebd 94eb 523d
00000080: 5526 103e be53 4c3e a0d2 aa3c 2558 1c3e
00000090: 8cf8 51bc 8e1a 0a3e 387d 983e 1ab1 2fbd
000000a0: 6ddd c13d 7c07 5fbd afa8 37bc cf0a 033e
000000b0: 2b94 003e ec95 c3bd da17 493e 9592 ae3d
000000c0: 0d18 8e3d c2af a43d 1616 2f3e fbd6 4abd
000000d0: c615 92bd 4f9e 1fbd 8d8a 4b3e b5ce 663e
000000e0: ba8b bb3b f860 1b3d 75b1 a83d 823e 473d
000000f0: 85c0 7e3e cc1f d8bc 60cb 793c 750a 83be
00000100: 08b5 acbd 1b8e cc3d e7c4 9cbb 18b3 7cbc
00000110: 67c4 093c 27cf f63d 6a7b 8ebd 6b16 aabd
00000120: a5c1 6dbd 747a 05be 41b0 47bd 515e 96bc
00000130: 32ae 19be fb44 953c 8ee1 9a3d 554c 16be
00000140: 9962 c2bc d4b9 cb3d cd96 85bd d1d2 9dbc
00000150: 9994 793d 0dd5 53bd 07ec 09be 3a3b 62bd
00000160: 79df 983c b9ce 0bbc c0d1 aebd c535 4d3d
00000170: d5a0 06be ac6b ba3c d291 773d e42e e73d
00000180: 9700 47bd 455e 24bd 50a4 07bc 075c 813c
00000190: 5723 293d 64d9 9ebd 70f9 50bd a549 773d
000001a0: a47a 3b3c f8da 08be d442 123e 697d 4dbd
000001b0: 9aae 4abd bd1d 093e 5121 47bd f8e8 63bd
000001c0: 48f1 193e e4cd 96bd 4778 02bc d6ad 8e3d
000001d0: 583a d9bd 6c01 c43c ad3d 3bbb 794d e5bd
000001e0: f6e7 8a3c 5318 b2bd 8bfe ef3d 4154 2b3e
000001f0: 0e4c 493d bae7 c03d c9f8 013e 1447 1f3e
00000200: ed9d 8ebd fff7 c03d 925c f63d 84db a63d
00000210: 2f1b 043e febe 4dbe 56f0 c03d 8f9d 5abe
00000220: 0fe3 933d 4e56 3a3b a06c 983a 987d a23d
00000230: df84 15be aac2 7fbc 9124 36be 8c39 9c3d
00000240: 150c 59bd 90b9 6c3c cfbd 68bd cbec 18be
00000250: 6b9f 233b 7d0a bfbd aa45 8fbc 299c b33d
00000260: a058 8b3b 3017 aebd 8aa5 273d 58cc bcbd
00000270: 7387 0ebe 5005 cdbd 84d4 afbd 7ba4 62bc
00000280: ef48 c03d ad0a 04be 1194 183e 94b1 a23d
00000290: 922c 753b 2534 583d 1e72 f6bc fc4c 713c
000002a0: 1aaa 8bbd e895 03bd 7c45 5a3e 9804 e23c
000002b0: ab46 b9bd 42d7 be3c 68d8 433b 7bf1 72bb
000002c0: 7376 07be d1d4 26be d9c4 80bd e18c 273b
000002d0: 9518 f13d 3656 893d bd50 6f3d 001c 54bd
000002e0: 5cb0 5c3d 8dce 053e a202 8cbc 0389 a7bd
000002f0: f800 57bc 8785 b0bd aefe 433e ca81 2abe
00000300: 30fc d6bc 2659 1dbe 6274 963d 1405 95bd
00000310: 498f ae3d fb47 fa3b 94b8 5d3c 9e9d 3ebd
00000320: 1b51 063c 2d1b fc3d 8434 3dbd 9531 c23c
00000330: 25b2 03bd e403 743e c16e a3bc 2cb8 9fbd
00000340: b265 0ebe f2d7 f7bd cd29 d03d aa84 d6bb
00000350: db5d 563d 6198 2b3d 4a79 3b3e f8c3 a23d
00000360: cc95 f6bd 4cc1 19be 0ffc 823d aa4f 38be
00000370: 7f5c 3c3e 5260 a33d 21ff 1a3e 3bb0 743d
00000380: efca 2b3c 9ea1 8bb9 83e7 39be 7667 13bd
00000390: 7830 c2bb 6fb7 ffbd f32f 0c3e c6b2 78bd
000003a0: 7e12 15be dacd b0bd 8029 1fbe bb55 27bd
000003b0: 41f2 c4ba 1bd4 e2bc c875 aebc 560e 8b3d
000003c0: 2b9e e33d 032e d9bc 82f4 163d 3b2a 513e
000003d0: ed79 b1bd 5149 b4bd 6821 033e b29d 4e3c
000003e0: f335 a8bc f534 b53d 6232 93bd fc42 173c
000003f0: df93 b53c bbef fdbb 63a3 d63b 0ba9 a13c
0.12649977 0.019513534 0.040476955 0.08861306 0.042839848 -0.003832872 -0.02194857 0.017394202
0.006527172 0.021727346 0.04649074 -0.064506635 -0.20260958 -0.1018222 0.088305004 0.1439348
0.011489489 -0.031502567 -0.2079537 -0.01568023 -0.11289383 -0.13229832 -0.054688223 0.09540177
-0.17662546 -0.10190192 0.02849482 0.082838826 0.073692404 -0.052049093 -0.06958957 0.051494196
0.14077123 0.1995382 0.020852387 0.15268 -0.012815606 0.13486692 0.29783034 -0.042893507
0.09466062 -0.054450497 -0.011209651 0.12797092 0.12556522 -0.0955008 0.19638005 0.08524052
0.06938181 0.08041336 0.17098269 -0.049521428 -0.07133059 -0.038969334 0.19877072 0.2253979
0.005723444 0.037934273 0.08236972 0.048643596 0.24878128 -0.02638235 0.015246242 -0.25593916
-0.084329665 0.09988042 -0.004784215 -0.015423559 0.008408642 0.1205123 -0.06957133 -0.08305057
-0.058046002 -0.13034993 -0.048752073 -0.01835552 -0.15007856 0.018221369 0.075625524 -0.14677556
-0.023728656 0.09947553 -0.065229036 -0.019265564 0.06093273 -0.051716853 -0.13468944 -0.055232264
0.018661248 -0.008533173 -0.085361004 0.050100107 -0.1314729 0.02275642 0.0604418 0.112882406
-0.048584547 -0.040128965 -0.008278921 0.015790952 0.04129347 -0.07756308 -0.051019132 0.060372967
0.011442814 -0.1336478 0.14283305 -0.05016843 -0.04948292 0.1339025 -0.048615757 -0.0556421
0.15033448 -0.07363489 -0.007963247 0.0696675 -0.10606831 0.02392646 -0.0028570697 -0.11196417
0.01695631 -0.08696046 0.11718472 0.16731359 0.049144797 0.09419198 0.1269256 0.15554458
-0.06963716 0.094223015 0.12029375 0.08147338 0.12900995 -0.20092389 0.094208404 -0.21349166
0.07221042 0.002843279 0.0011629052 0.07934111 -0.14601468 -0.015610376 -0.17787386 0.07628164
-0.052990038 0.014448538 -0.05682164 -0.1493408 0.0024966847 -0.09328172 -0.017489273 0.087700196
0.0042525083 -0.085005164 0.040929355 -0.09218663 -0.13918857 -0.10010779 -0.08585456 -0.0138331605
0.09388911 -0.12894697 0.14900233 0.079440266 0.00374106 0.052784104 -0.030083712 0.014727827
-0.06819554 -0.032125384 0.21315569 0.027590081 -0.09046682 0.023296002 0.0029883627 -0.0037070203
-0.13228779 -0.1629212 -0.06287546 0.0025566148 0.11772267 0.067058966 0.058426607 -0.051784515
0.053879127 0.13067074 -0.0170911 -0.0818043 -0.01312279 -0.08619218 0.19140121 -0.16651073
-0.0262433 -0.15366039 0.07346417 -0.07276359 0.08523423 0.0076379753 0.013532776 -0.046537034
0.008198048 0.12309871 -0.04619266 0.023705283 -0.032152314 0.23829609 -0.019950273 -0.077988
-0.13905981 -0.12101735 0.10164223 -0.0065465765 0.0523356 0.041893367 0.18307987 0.07947534
-0.1204029 -0.15015143 0.063957326 -0.1799914 0.1839466 0.07977356 0.15136386 0.05973838
0.010485395 -0.0002663256 -0.18154721 -0.03598734 -0.005926188 -0.12486159 0.13690166 -0.060717367
-0.14557835 -0.08633013 -0.15543175 -0.040853243 -0.001502581 -0.02768903 -0.021296397 0.06789844
0.111141525 -0.026511198 0.036854275 0.20426266 -0.086658336 -0.088030465 0.12805712 0.01261084
-0.020533537 0.088479914 -0.07187344 0.009232279 0.022165237 -0.0077495254 0.006550239 0.019733926

rnn.bias_ih_l1 f4 [128]
00000000: 95db 243e 1429 1d3e 4c3e 2d3d 586c d3b9
00000010: e6f9 0f3d 0545 fabc 064f f53d edc7 473d
00000020: 8c0e b53d 17e2 2a3c 6a88 c93c 92c6 4738
00000030: ad7f f7bd 2ddf 863d ce58 f9bd 1be3 a83d
00000040: 542c 0cbe 892b d03d 192f 17bd 4d8b 26bc
00000050: 7b10 ac3d e579 80bd a4f9 d43d 66d0 ca3d
00000060: 517f 94bd 08b3 98bc 12f7 b4bd 9f12 1cbe
00000070: 8d10 2c3c db38 f9bd 206f b13b 525e ab3c
00000080: 7ac0 043e 18fb a43d c21d f73d cfa8 693d
00000090: 9feb 93bd e624 2dbd 155f 6f3d fda5 5ebc
000000a0: 40a1 2f3d 5ac1 063d c1ef 95bd 1270 54bd
000000b0: c0f7 a63c b981 cbbd 097e c83d 38b1 143d
000000c0: 76a8 4dbd f48d 05bd 2a2f 4b3c 33cd 97bc
000000d0: fb75 ac3d bc25 8dbd f513 503d f994 f03d
000000e0: ff1a 5b3c 2a6a ce3d ab84 833d 2f3f 973d
000000f0: d979 bd3c 5840 49bd 6d23 403d 5489 10be
00000100: c08e c4bd 2273 d73d 3fbe 0abe da25 d73c
00000110: d10e 8bbc ac77 a33d d58d 243d 8976 c4ba
00000120: dedd 0b3e 77fc b0bc 5166 cabd d395 203d
00000130: 39c1 95ba f92b 153e 514e 923d ce96 a0bd
00000140: 945d 8b3c e419 0dbe 0dda 873c 7b59 e6bd
00000150: 3b67 b4ba 36ed c8bd 2f2c ca3d a824 0b3d
00000160: c0a4 00be 624e 8bbd 9b2b b5bd a68e f4bd
00000170: ffd5 343d f48c 35bc 77b5 9d3c 2458 cc3d
00000180: 1c38 823d 6799 dd3d b018 5cbd 514b 4dbd
00000190: 2afa 1c3e 6f2e 66bd fbec 99bd b736 f1ba
000001a0: 39c6 15be aa08 9cbd 4bd3 29bd 43db 993d
000001b0: 3e4c 053d 2f0a 0c3e 58e8 3e3d 926b 1d3d
000001c0: 3d92 923c 4b9c 5a3d 5781 033c 107a 933d
000001d0: a111 d3bd 12ba d53b 31a8 3fba e113 173d
000001e0: 776b cdbc dba5 9b3d 1306 49bd a419 083e
000001f0: b63f de3b 3d0e 613c d75e 473d 001a fc3d
0.16099389 0.15347701 0.04229574 -0.00040325779 0.03515043 -0.03055049 0.11977963 0.04877465
0.08840665 0.010429881 0.02460118 4.763023e-05 -0.12084899 0.06585536 -0.12175141 0.08246442
-0.13688785 0.10164554 -0.03691015 -0.010165048 0.08401581 -0.062732495 0.10399178 0.0990303
-0.07250846 -0.018640056 -0.088361874 -0.15241478 0.010501993 -0.121690474 0.0054148585 0.020918999
0.12964049 0.08055705 0.12066223 0.057045754 -0.072226755 -0.042271517 0.058440287 -0.013589379
0.04287839 0.03289924 -0.0732112 -0.05186469 0.020381808 -0.09936852 0.09789664 0.03630182
-0.050209485 -0.03260608 0.0124013815 -0.018530464 0.084209405 -0.06891963 0.050800283 0.11747164
0.013373136 0.10078843 0.06421789 0.07385098 0.02312939 -0.04913363 0.046908785 -0.14114887
-0.0959754 0.10520007 -0.13549136 0.026263166 -0.016974838 0.0798181 0.040174324 -0.001498894
0.13658854 -0.02160476 -0.098827966 0.039205384 -0.0011425383 0.14567555 0.07143844 -0.07841264
0.017012395 -0.13779408 0.016583467 -0.11247536 -0.0013763675 -0.098108694 0.098717086 0.033970505
-0.12562847 -0.0680206 -0.08846208 -0.119412705 0.044149395 -0.011080969 0.019251568 0.09977749
0.06358358 0.10820275 -0.05373448 -0.050120655 0.15329805 -0.056196626 -0.075159036 -0.0018403147
-0.14626397 -0.0761884 -0.04146127 0.07512524 0.032543413 0.1367576 0.0466083 0.038432665
0.017891997 0.05337171 0.0080264425 0.07201016 -0.10306097 0.0065224255 -0.0007311134 0.036884192
-0.025075657 0.07599994 -0.04907806 0.13291031 0.0067824973 0.013736305 0.04867443 0.123096466

rnn.bias_hh_l1 f4 [128]
00000000: 2291 4c3d 35fe da3d d3b8 53bd f9fb 3dbd
00000010: cc17 3e3e 3efb 0ebe 4de9 e13d fe73 d3ba
00000020: 6ae0 bb3c 1bf4 23bd a6a6 80bd 18a2 953d
00000030: 67d8 11be 53ce 613c 3714 343d 0c2d ddbb
00000040: 4ddb 13be 1d28 513c 856e f1bd 6b6f 95bc
00000050: 0cf4 8c3d 7cd9 2bbe 9ee6 c8bc 2036 993d
00000060: c9bd 21be 11ca 503d 5125 723d 205d 78bc
00000070: cf11 e8bd fade 57bd 5e94 aabd c4c7 e83c
00000080: 1361 e23d bc8b ce3d 245f c8bc 8eda a23c
00000090: 78e2 34be e71d c53d e5ec 65bd 6022 86bd
000000a0: 0f9d 9f3d fda2 c3bd 1c8b 85bd 11be 6b3d
000000b0: e64d 70bc 2ac0 f0bd 4494 703d 8dd6 4c3d
000000c0: 877f a23d 0d0f c5bd 6934 c73d 2ab5 a4bd
000000d0: 46aa 57bc e6aa 6d3d 4283 1f3d 0b5d da3d
000000e0: 1493 f23c d30d 0f3d 4552 133c 49fc bcbc
000000f0: 0e07 e83d 2788 cdbc d3dd a6bc 4ad1 1dbe
00000100: 95c7 e5bd a279 fabc f9a0 693b 0b00 6b3d
00000110: 1796 ab3b a9f2 a93d cbfd e7bd 3100 343c
00000120: 0eaf 13bd 9287 11bb 4dfa 16be cd45 803d
00000130: bdc9 e7bd eeb2 2b3e de45 d33d 5fbc a4bd
00000140: e7f2 14bc 9f9b 2abd 5e5d d13d 3fdc 75bd
00000150: 5dcf a03d 3adf 4dbd 65bd 303d 5ee3 e4ba
00000160: a832 48bc 3b03 edbd 095d 08be bbfc bbbc
00000170: 8da0 d63d b19e d2bd 3495 c23d 053d 8a3d
00000180: c4ab d63c 7da9 f13d 65cc 433d 69a1 ec3d
00000190: d4a1 d03d 7a62 acbc 704f 343d 12e8 08bd
000001a0: 5dbe d6bd 9569 dc38 34b6 f2bd 3d81 993d
000001b0: eb54 74bd b877 ba3d a753 433d 4858 c63d
000001c0: 6a8d f03c e00c 11bd 6a8c ac3c 7ccd e73d
000001d0: a034 09be 11cd 92bd 4466 4abc c239 db3b
000001e0: 5f9b 17bd da02 a5bd 01fd c4ba 5b4a e83d
000001f0: b740 81bd 9e53 90bd f599 1dbd d18c f53d
0.049943097 0.106930174 -0.051689934 -0.046382878 0.18563765 -0.13963029 0.11030827 -0.0016132591
0.022934157 -0.04002772 -0.06281786 0.073063076 -0.14242707 0.013782102 0.04396459 -0.006749755
-0.14439125 0.012765911 -0.11788658 -0.018241605 0.06882486 -0.16782182 -0.02452403 0.07481027
-0.15795054 0.050973956 0.05911762 -0.0151589215 -0.11331522 -0.05270288 -0.0832908 0.028415568
0.11053672 0.10085246 -0.02445943 0.019879606 -0.17664516 0.09624844 -0.056134123 -0.06549525
0.077936284 -0.09552572 -0.06520674 0.05755431 -0.01466701 -0.117554024 0.058735147 0.0500093
0.0793448 -0.09622011 0.09726793 -0.08042367 -0.013163155 0.05802431 0.038943537 0.10662278
0.029611148 0.034925293 0.008991783 -0.023069518 0.113294706 -0.025089337 -0.020369446 -0.15411869
-0.11219708 -0.030575577 0.0035648926 0.057373088 0.005236398 0.08298237 -0.11327704 0.010986374
-0.036055617 -0.002220605 -0.1474392 0.062633134 -0.113177754 0.16767475 0.103160605 -0.080437414
-0.009091116 -0.041652318 0.102228865 -0.060024496 0.078520514 -0.050261714 0.04314937 -0.001746278
-0.012219109 -0.11572882 -0.1331674 -0.02294766 0.104798414 -0.10284174 0.095011145 0.0674992
0.026204951 0.117999054 0.047802348 0.11554224 0.10187116 -0.021043051 0.04402107 -0.033424444
-0.10485528 0.00010510084 -0.11851159 0.07495353 -0.059651297 0.09104866 0.0476872 0.09684807
0.029364306 -0.03541267 0.021063048 0.1131849 -0.13398981 -0.071680196 -0.012353484 0.006690235
-0.037013408 -0.080571845 -0.0015029014 0.11342307 -0.063111715 -0.07047199 -0.038476903 0.11989749

head.weight f4 [2, 128]
00000000: 36f5 733e df36 87be c9bf 4cbd c346 15bd
00000010: 3e51 30bd c9c4 4dbd 6714 143d 1cda 6a3c
00000020: dad2 3b3c 1927 563d 33ad 79bd dda6 a7bc
00000030: c931 61bb 4cb8 303d 14c0 103e 2438 923d
00000040: ee0f c6bc c2a4 8f3b 371a c1bc 946f 123e
00000050: c782 3bbd 8542 ebbd 5bce 52be 6adb dabc
00000060: 1cfd fabc 3e99 3bbc 0c85 833c 008c 423d
00000070: dc59 283e c84c 293d 026c f6bc 89e5 0abd
00000080: 9e1d e9bb ef31 2bbc 7ab6 c7bd 3f81 e73b
00000090: a201 cfbd fe92 843c 28f2 663d 54df 4c3c
000000a0: 9bd3 b43c 58b9 74bc da1e 36bd bae5 233d
000000b0: f878 e03c 3919 a2bb af1d 2b3e 67fe 023d
000000c0: 218d 7dbd 6967 d93d 7acf fc3d 6406 ecbd
000000d0: c593 303d 401b 053d 874c 99bd 65cf 083e
000000e0: 11e8 bfbd d3d8 003e ed78 f03b 7c41 b93d
000000f0: f80e 773d 006a f1bc ecbb 7a3d 067c 01bd
00000100: 9b2e 7ebd 8e60 0d3b cee3 26be 25a3 013d
00000110: 631d ab3d 42ae 27bc 1baf adbd 8710 0d3e
00000120: 3a7a 8ebc 61a8 02bc 21d7 b8bd b72b 10bd
00000130: 2bf1 913c dc7b f8bd bb3b 25bb 6462 10bd
00000140: 36c3 77bc 1492 873e 2708 c5bc 3f8e 53bd
00000150: 2e5d 67bc 0e78 183d 1ea0 4c3d 53cb 6bbd
00000160: 40e0 03bc 3013 49bc 5aab 49bd d7f9 9f3c
00000170: 93a7 2ebe 3169 acbc 0fe1 8f3b 47c4 073c
00000180: 8d36 f03a 82ae 7d3d e79d 35bc 4e06 1f3c
00000190: d57c 2e3c 7540 60bc 3cb2 27bd f745 5e3e
000001a0: 36a6 23bd 11cd cabc 50c9 513d ef9a 153d
000001b0: b5fa bc3c 125c 573c ea89 99bc 1ced a0bc
000001c0: e793 03be 9dd5 60bd 6cd5 443b 4f5b d6bd
000001d0: c1db b1bd f149 cabc d5ab 8d3a b9b2 fa3a
000001e0: d30c 9c3c 5fdb 59bd 66c4 1f3d e016 a43d
000001f0: f699 303d 2d8c ad3c 03ad 3b3c f81f c73c
00000200: 6468 983c abf1 16be 3450 e7bc 759c d4bc
00000210: c6a0 553d bd3a 8dbb 1599 e23b 593d d83c
00000220: bfbc 12bb 1c37 a83d 447d 7b3c a2a2 39bd
00000230: e735 31bd 1462 503d 00b8 503e 8d33 3abd
00000240: 57f4 67bd 7536 aabd a636 9abc 52f8 3b3e
00000250: 3920 013c 1684 cabd a0d4 3f3e d28a bd3c
00000260: 42d3 8fbb c859 af3c bbe0 3f3d 4972 6cbe
00000270: 4613 ffbc 8335 353d 7c5c 9d3c b4c7 9bbd
00000280: d548 18b8 fb17 163b ca23 1b3d ceee 2a3c
00000290: 7e5a e53b faec a9bd 127f ffbc c9c8 43bc
000002a0: e388 3bbc 39a1 24bb a1c1 27bc 83f8 a7bb
000002b0: 47a6 d83c f5a9 30be 3cb0 903d 0933 96bc
000002c0: 4785 3fbb 3d47 24bc d37e 013d 7c58 f3bc
000002d0: 8dc9 643c 5332 61bd 1d18 d5b9 5aaf 113c
000002e0: 8586 c33d 7d49 713d 9571 473c 0923 943d
000002f0: d223 dabc cb44 073c e996 f63d 2824 173d
00000300: e4f7 90bc a2c5 953c 6fec 203e 23aa 923c
00000310: 08a1 ae3d 57ed 7fbc 2cef bb3d c13e 99bd
00000320: a91d dc3d b607 71bd 3a6d 043d 4c25 b3bd
00000330: 5959 3c3c cf58 86bc f3b2 08bd dcdc 1f3c
00000340: 8508 003d 7bbe 0a3e 2abb ce3d 1872 adbc
00000350: b47d 093e 608c 333d a48c 17be f768 5bbd
00000360: ff36 cd3a 7bae 98bc f53e b03b f335 343c
00000370: dbeb 913d f39c 0dbd 2332 fb3d 0c09 6dbc
00000380: 1c3e e2bc 44e5 c03d 5096 293d 8d79 ccbc
00000390: d4d2 84be 69e0 363c d838 dcbd 1003 3fbd
000003a0: 141d 1fbe 5662 95bc a18b 7abe 9681 333c
000003b0: 7142 7b3c 4ade 9f3c 97e7 8dbb 9195 9b3e
000003c0: 595d 0dbc 50ee 88be aef2 5638 18d2 97bc
000003d0: c6a6 28be 801c 403d c60d a3be a506 993c
000003e0: 0efb 8fbb 4c4e 703d 9bb8 88bb c1ad c9bc
000003f0: c40b 673e 0e0d 5a3c c6b2 ee3c 4261 423c
0.2382401 -0.2640905 -0.049987588 -0.036444437 -0.04304623 -0.050236497 0.03615227 0.014334228
0.011463845 0.05228338 -0.06095619 -0.020465309 -0.003436195 0.04314451 0.14135772 0.07139614
-0.024177518 0.0043836543 -0.02357207 0.14300376 -0.045779016 -0.11487297 -0.20586531 -0.026715953
-0.03063827 -0.01145011 0.016054653 0.047496796 0.16440529 0.04133299 -0.030080799 -0.033910308
-0.0071141263 -0.010448917 -0.097516015 0.007064968 -0.10107733 0.016183373 0.056383282 0.012504417
0.022073558 -0.0149367675 -0.044463016 0.040014006 0.027401432 -0.0049468544 0.16710542 0.0319809
-0.06190217 0.10615427 0.123442605 -0.115246564 0.043109674 0.03249669 -0.074852996 0.13360365
-0.09370435 0.12582712 0.007338634 0.09045693 0.06031701 -0.02946949 0.061214373 -0.03161242
-0.062056165 0.0021572444 -0.16297838 0.031649727 0.083552144 -0.010234417 -0.08480664 0.13775836
-0.017392267 -0.007974715 -0.090254076 -0.03519794 0.017815193 -0.12132999 -0.0025212604 -0.035250083
-0.0151222255 0.26478636 -0.024051739 -0.05164933 -0.014121337 0.037223868 0.049957387 -0.057566952
-0.008049071 -0.012272641 -0.04923568 0.019528313 -0.17056112 -0.021046253 0.0043908427 0.008286542
0.0018326804 0.061934 -0.01108501 0.009706093 0.010649879 -0.013687243 -0.040941462 0.21706377
-0.039953433 -0.024755986 0.051217377 0.03652471 0.023068765 0.01314451 -0.01874252 -0.019644313
-0.12849389 -0.054891217 0.0030034436 -0.104666345 -0.08684493 -0.024693461 0.0010808656 0.001912675
0.019049084 -0.053187724 0.03900566 0.080121756 0.04311558 0.021185005 0.011454823 0.024307236
0.018604465 -0.14740627 -0.028236486 -0.02595351 0.05215528 -0.0043099807 0.0069152215 0.02639644
-0.0022390333 0.08213636 0.01534969 -0.045321114 -0.043264296 0.050874785 0.2038269 -0.04545932
-0.056629505 -0.08311168 -0.018824887 0.18356445 0.007881218 -0.09888475 0.18733454 0.023137484
-0.0043891976 0.021405116 0.04684518 -0.23090471 -0.03113712 0.044240486 0.019209139 -0.0760645
-3.6307454e-05 0.0022902477 0.037875928 0.010432912 0.006999313 -0.08297153 -0.031188522 -0.011949726
-0.011446211 -0.002512051 -0.010239036 -0.0051260605 0.026446475 -0.17252333 0.07064864 -0.018334882
-0.0029223727 -0.01002675 0.03161509 -0.029705279 0.013964069 -0.054979634 -0.00040644492 0.008891905
0.09547142 0.058907975 0.012173076 0.07233245 -0.026628409 0.008256148 0.120405026 0.036899716
-0.017696328 0.018282715 0.15715192 0.017903393 0.08526808 -0.015620551 0.09176478 -0.074826725
0.10747845 -0.058845244 0.03233073 -0.08747348 0.0114959115 -0.01639977 -0.033373784 0.009757247
0.031258125 0.13549225 0.100942925 -0.021172568 0.13426858 0.043835044 -0.14799744 -0.0535669
0.0015656649 -0.018637886 0.005378599 0.010999191 0.07125064 -0.034573507 0.12265422 -0.014467489
-0.027617507 0.09418729 0.041403115 -0.024960304 -0.259421 0.011161902 -0.107530296 -0.04663378
-0.15538436 -0.018235367 -0.24467327 0.010956189 0.015335665 0.019515175 -0.004330586 0.30387548
-0.008628213 -0.26744318 5.124759e-05 -0.018532798 -0.16469869 0.04690218 -0.31846446 0.018679926
-0.0043939417 0.05866842 -0.0041723973 -0.024618985 0.22563082 0.013308777 0.02913798 0.011864008

head.bias f4 [2]
00000000: 204d aa3c ab8a 23bd
0.02078873 -0.039927166
