models/best_lstm_model.pt (torch, 12108 bytes, 6 tensors)

lstm.weight_ih_l0 f4 [80, 8]
00000000: 7754 23be 02c4 5f3e 550a 813e 0182 153d
00000010: 4f4b 9c3d 15c1 c3be 071c 1a3d 9f5e 8bbd
00000020: 17b0 223e 7237 503e e9da 9ebd 48ba 693e
00000030: 2c3a a33d e4e6 3b3e e4be ae3e 9219 d33d
00000040: bf0d 4d3e 63b8 a63e f397 df3e 7056 a23e
00000050: 10f1 f13e de92 2c3f 2b3a c73e 9a8d b03e
00000060: 3210 fdbb 3f0b 103e 60a7 c8bd 8d82 02be
00000070: 1c96 7abe 5f5b 833e 69ae afbd 0c1a 40be
00000080: 33db 26bd d0cd 9bbd 3716 5c3e 90a5 1d3e
00000090: 22ae b53e 38dc 973d 9102 203e d542 e9bd
000000a0: ef12 493e 4f79 9e3e 3f2a 803e aba6 cd3d
000000b0: 9b8c b43e 649e 923e 0ce6 0e3e 6036 913e
000000c0: 4f45 34bd 59c6 e03d fac9 8b3e 3785 c53d
000000d0: 30bf 933e 557a 183d 695d dd3d b2e7 8f3d
000000e0: 2091 b8bc 0143 4c3e 10d3 f2bd 019b 2e3d
000000f0: 9201 48bd 109c 243e 512a f53d cea3 f73d
00000100: 750d 833e a93d 763e 49de 513e c549 10bd
00000110: 1dbe 843e 1e29 0e3f 6397 8dbd e060 8abd
00000120: 17c1 34bc 74ad 40be 73c5 2ebe 6668 aabd
00000130: d931 db3e 5b00 53be 4268 5b3d 93f7 2e3e
00000140: a10a 23b8 8867 e8bb 523e a7bd 0458 633e
00000150: 2e42 c63e 4a99 ae3c df0b 8f3e c0a2 edbc
00000160: 6103 bb3d 58c6 0a3e cd8a 67be 3b3a 1dbe
00000170: 05b7 553e 73d6 ef3d 5a20 33bb b99f 10be
00000180: 098e 243e 9387 0c3e 0f87 5d3e d621 28be
00000190: 43cf 973d 8a4a 90be 8c76 983d bef1 2bbe
000001a0: 07b4 183d b902 16be a8b1 18be 1dc9 203e
000001b0: 9a85 0f3e 4389 2c3e 0a45 13be 56d5 1a3d
000001c0: 8e09 8b3e 1d29 b43d e50d cc3e 1bed 443e
000001d0: 252b db3d 8bd9 a1bd 4cbb 703e 9a07 793e
000001e0: b02d 1cbe 1897 80be bd37 e8bd 1848 c73d
000001f0: d0d2 05be 72f9 2dbe c830 b43d 5c74 a4bc
00000200: bef4 dbbd d396 513d 8255 6d3e e8bf 0ebe
00000210: 7ac8 f73c 9a05 313e 71ca d53d 465f 333e
00000220: 2541 f3bb e77e afbd d690 6ebc 563b 273e
00000230: 1a65 9f3e 7154 ecbd 5f55 e03c 9482 cc3d
00000240: b6c8 d53d daa2 f23d 699a 693c 8cdd d83d
00000250: dd70 5f3e b866 453e cfb2 72bd 3361 afbc
00000260: e661 d43e 9d87 b33d d1cb b43d 42d8 6fbd
00000270: 3f0f 89bd a6fe d63e 402c 30bd 2fa3 b33e
00000280: ac13 583e 73a6 eebd 38ce 793d 4008 f23d
00000290: 5792 ab3e 07c7 64bd 02ae c3bb a883 2f3e
000002a0: 632e 10be 6999 a4be 92a3 f43d ec99 89be
000002b0: 2fc3 7e3c 3255 41be 6d04 edbd 54f8 63be
000002c0: 4c90 14be 0212 09be 7119 173e afa1 b0be
000002d0: ce35 b03e 4453 a93e 6279 41be b510 b4bd
000002e0: 3532 edbd 07a6 843d f743 ed3d becd 40be
000002f0: b0c3 a53d 3753 8abc 59c6 833d 68a6 083d
00000300: 081d 283d b0f1 ae3c bbca 5abe c456 30be
00000310: b641 183d d8e0 3e3e 15fc abbd 0d7f 483e
00000320: 0535 afbc 9de3 603d d93c ba3d 78fc 003d
00000330: 60c6 ea3d 15d8 d43d 8d37 27be 8dfc 12be
00000340: c589 eabd a4eb d4bd f19c 3ebe ed7b 3dbd
00000350: 7b77 223e c90c f53d 1783 56be d855 09bd
00000360: 2e5a 29be 55ad 09bd ecb2 433b a1d2 4f3e
00000370: d47d 863e 922a 83bd c714 553e b40a 103e
00000380: fdce 283e 9f9b 09be 76cb 82bd 2e94 bfbd
00000390: 117a 613e 6975 013f 602d e8bd 9a62 bebc
000003a0: 104c 053e aa05 a53c fd34 70bc 8720 823e
000003b0: 9d6a af3e 354d 71be 1df2 993d f4ac 763d
000003c0: c434 6f3e a426 f4bd a81c 04be 2cee 0a3e
000003d0: 0121 e03e 4074 25be f92d b4bd fc46 52be
000003e0: 0bb6 3fbe 2544 1b3e 4665 3a3e 1dc9 51be
000003f0: 1b83 c73a f79d 85be 58bf 26be 14ba f5bd
-0.1595019 0.21852115 0.25203195 0.036500935 0.076315515 -0.38233247 0.037624385 -0.06805157
0.15887485 0.2033365 -0.077565975 0.22824967 0.0797008 0.18349797 0.34130013 0.103076115
0.20024775 0.3256255 0.43670616 0.31706572 0.4725423 0.674116 0.38911566 0.34483033
-0.007722878 0.1406679 -0.09797549 -0.12745114 -0.24471325 0.25655648 -0.08578188 -0.18759936
-0.04073639 -0.07607615 0.2149285 0.15395188 0.35484415 0.0741505 0.15625979 -0.113897
0.19636129 0.30951926 0.2503223 0.10041555 0.35263523 0.28636467 0.13954943 0.28361797
-0.04401141 0.10975332 0.27302533 0.09644549 0.28856802 0.03722604 0.10808832 0.07026614
-0.022530138 0.19947435 -0.11856663 0.042628292 -0.048829623 0.16075158 0.11970962 0.1209179
0.25596204 0.24046959 0.20494951 -0.035226602 0.25926295 0.5553149 -0.0691364 -0.06756759
-0.011032364 -0.18816167 -0.17067508 -0.08320694 0.42811468 -0.20605604 0.053566225 0.1708663
-3.8872127e-05 -0.00709242 -0.081661835 0.22201544 0.38722366 0.021313328 0.27938744 -0.02900827
0.09131504 0.13552225 -0.22611542 -0.15354244 0.20870598 0.11710825 -0.0027332515 -0.1412343
0.16069807 0.13723592 0.21633552 -0.16419157 0.07412579 -0.2818187 0.07444486 -0.16791436
0.037281062 -0.14649476 -0.1491152 0.15701719 0.14015809 0.16849236 -0.14381805 0.03780111
0.27155727 0.08796904 0.3985435 0.19231074 0.107015885 -0.07902821 0.23508948 0.24319306
-0.15251803 -0.25115275 -0.11338756 0.09730548 -0.130687 -0.16989687 0.08798367 -0.020075016
-0.1074004 0.051169228 0.2317715 -0.13940394 0.030246962 0.17287293 0.10439003 0.17516813
-0.0074235373 -0.085691266 -0.014560899 0.16331229 0.31131822 -0.115395434 0.027384458 0.09985843
0.10438673 0.11847468 0.014258006 0.10589132 0.21820398 0.19277465 -0.059252556 -0.021408653
0.4148094 0.087661006 0.088279374 -0.05855585 -0.06692361 0.41991156 -0.04301095 0.35085437
0.21101254 -0.116528414 0.06098768 0.1181798 0.33510086 -0.05585387 -0.005971671 0.17140067
-0.14080195 -0.32148293 0.11945261 -0.26875246 0.015549465 -0.18880156 -0.1157311 -0.22262698
-0.1450817 -0.13385776 0.14755799 -0.34498355 0.3441605 0.3307134 -0.1889396 -0.08792249
-0.11581842 0.0647698 0.11585229 -0.18828484 0.08093965 -0.016885383 0.06434316 0.033361822
0.04104331 0.02135548 -0.21366398 -0.17220598 0.03717204 0.18640459 -0.0839769 0.19579716
-0.021387586 0.05490457 0.09093637 0.031490773 0.11463618 0.10392777 -0.16329785 -0.14354153
-0.11452059 -0.103965074 -0.18614556 -0.046260763 0.1586589 0.11965329 -0.20948444 -0.033529133
-0.16538307 -0.033612568 0.0029861284 0.20295192 0.26267874 -0.06404604 0.20808707 0.14066583
0.1648521 -0.13438271 -0.06386463 -0.09354435 0.22019221 0.5056978 -0.113367796 -0.023240376
0.13017297 0.020144302 -0.014661071 0.2541544 0.34261027 -0.23564608 0.075168826 0.060223535
0.23359972 -0.119214326 -0.12901556 0.13567418 0.4377518 -0.16157627 -0.08797831 -0.20534891
-0.18721788 0.15162714 0.18202695 -0.20486875 0.0015221568 -0.2609708 -0.1628393 -0.11998382

lstm.weight_hh_l0 f4 [80, 20]
00000000: cfd3 89bc 15ea 493e 8004 84be 5b38 6cbe
00000010: 0f86 4cbe b174 4d3e 147f 833e c46d 19bd
00000020: 6f69 02be 6aca 8f3e 4766 6f3d 7d3a 3e3e
00000030: 272d 1abd 9ca5 be3d b433 4cbe 27d9 cebd
00000040: a068 f83d e694 673e 0884 683d efd0 383e
00000050: 3b4d 193f 9184 3f3e ae23 04bf 9805 2abe
00000060: b22d febe dcdf a0be 2063 1e3f 3810 38bf
00000070: 23d9 be3f bdbe fa3e 7297 173f ee57 6dbe
00000080: eabe 543e 18fb 47be befd 62bf a591 80bc
00000090: 6423 c43e a724 863d 705a e43e 7890 523e
000000a0: 5fa5 d63e 00d7 403e 9059 f6bd 10e4 18be
000000b0: 5964 57bf 07ee abbe 7f06 eb3e c1ff 22bf
000000c0: 1922 733f 1536 113f 6080 1f3f de20 773d
000000d0: 055e d63e b7de 173e a0c7 13bf 1acd 0abf
000000e0: 0122 213f 393f ff3e 692d eb3e 5ae2 fb3d
000000f0: 8008 413b 496e 3d3e 2ade 0b3e 12ef 3d3e
00000100: 6980 1b3e b022 8b3d 76de 3b3e 4273 033d
00000110: 1a6c e43d ea65 c0bd 5084 a8bd a3f3 ce3c
00000120: e301 833c c50c 96be bf85 2a3e 92b8 71bd
00000130: f608 2b3e 97c4 0cbd dd1e 103e 61f6 153e
00000140: 27a9 083e 38a6 a0bd 369a 5cbe 66e0 8f3d
00000150: 88fc 8b3d cb47 c23d 9e67 083e 3532 01be
00000160: c775 a3bd 73a4 ccbc caf8 d73d 3cb9 f6bc
00000170: 2d1f 18bd 7bd6 ef3d f25f 943c 5530 9abd
00000180: 58bc 71ba 6ecc 033e 4d27 0e3e 9edf df3d
00000190: d429 a93e aeaf 3abe 808f afbe 7f74 31bd
000001a0: c11d dfbe 5d70 74be 6c1b d13e 6e7d 1dbe
000001b0: 5d83 053f bcdb b33b 9834 0e3d 99de 37bd
000001c0: 7c53 7b3e 607d 763d 620d a1be bf2e 2abe
000001d0: b392 7a3e 058b 9e3e ca7d db3d da27 1ebd
000001e0: 3111 093e 4229 93be 9ec2 8f3d 25a8 02be
000001f0: bfd7 75bc 2a6e 1c3e b19b d83c 8782 313d
00000200: 04e1 553d cfc2 e93c f795 ca3d 9e1b 213b
00000210: 7aeb c23d 1f81 76be 8845 b3bd ae85 9f3d
00000220: 6994 593e 4e8d 6f3c 969a fdbd cb98 203e
00000230: ee16 393b 89f9 8e3e 9845 aebd 8d2b 7fbe
00000240: 3a6f 30be 8948 ec3d 2f11 f9bd 7d96 58be
00000250: 619c 853d edae 10be 3b61 5dbd 8428 693e
00000260: 2762 903d ab52 053e 6693 463d bbc4 953d
00000270: 75e7 593e f0bd bc3d 4112 243e a8cb 69bd
00000280: 5133 c23d db1f 2cbe 30fb c0bd 11cb d0bc
00000290: c9a3 0bbe a45f a8be 91dc 8138 2dd7 66be
000002a0: 11b8 e83d 3568 a23d f353 b83d aa81 08be
000002b0: 63ec fdbd e43e 15be acdc 57bd 0c2a a3be
000002c0: c43f 11bd 85b7 613e a04f 6c3e ec9c 063e
000002d0: 1d6c 433e a653 973e 3e0b 23b7 055b 72be
000002e0: 4752 c83c 9d64 33be 1421 38bd 24e5 81be
000002f0: 0b29 c63b 9741 623e bac7 5bbd 5ace de3d
00000300: 3139 163e c88b 0cbe 511e 5e3c 6391 8b3d
00000310: 03a5 203e ca17 3cbe f6b5 803d cc28 043e
00000320: 0f5b 5d3e 251a 2a3e dd83 cdbd d08a 493c
00000330: be56 a6be e277 49bd 75b5 38bd bab7 233d
00000340: 977b dd3e 10f5 583d 16e3 4c3e 06b2 da3d
00000350: 6650 adbd 8929 34bd a212 8c3c 23e4 c5be
00000360: 60d4 943e f982 a53e dd81 acbb be95 593e
00000370: 3c26 debb d574 6f3d afc5 c53d a0a6 14be
00000380: f947 bf3d 75ff 16be a075 2a3e b846 413d
00000390: f079 27be e049 65be 9178 fdbd 8da5 aabd
000003a0: 48b6 d83c de3b 6bbe 40b5 42be 2ea5 bcbc
000003b0: a9d8 5f3d bd25 68be 2703 71be b57e a83d
000003c0: 84a9 0fbe 3798 923e a329 6fbd ee38 cdbd
000003d0: d6ba dabd 8807 cbbd ac6f 37bd eba0 3d3e
000003e0: 7e27 83bd adc5 50be 598f e73b 5926 3ebc
000003f0: 4de8 953d d561 593a e1a0 50be a773 dfbc
-0.016824631 0.19718201 -0.25784683 -0.23068373 -0.19973014 0.20064045 0.2568289 -0.037458196
-0.12735532 0.28084117 0.05844715 0.18576999 -0.037640717 0.09308931 -0.19941598 -0.10100012
0.12129331 0.22615394 0.05676654 0.18048452 0.5988347 0.18702914 -0.5161694 -0.16603696
-0.49644238 -0.3142079 0.6187 -0.7189975 1.4910015 0.48973647 0.5921546 -0.23178074
0.20775953 -0.19529378 -0.8866843 -0.015694449 0.3830825 0.0654996 0.44600248 0.20562923
0.41923043 0.18832016 -0.120288014 -0.14930749 -0.84137493 -0.33580038 0.45903394 -0.636715
0.94973904 0.5672315 0.6230526 0.06033408 0.41868606 0.14831053 -0.5772648 -0.5421921
0.6294251 0.49852923 0.45933083 0.122990325 0.002945453 0.18499102 0.13658968 0.1854823
0.15185703 0.067937255 0.18346581 0.03209234 0.11153431 -0.093944386 -0.082283616 0.02526266
0.01599211 -0.29306617 0.16652583 -0.05901391 0.16702637 -0.03436717 0.14074273 0.14644767
0.13345776 -0.07844204 -0.21543202 0.070252225 0.06835276 0.0948635 0.13320777 -0.12616809
-0.079814486 -0.02498076 0.105454996 -0.030117624 -0.037139107 0.11710831 0.018112157 -0.0752875
-0.0009221486 0.12870952 0.1388218 0.109313235 0.33039725 -0.18231079 -0.3428917 -0.04332399
-0.43577388 -0.23870988 0.40841234 -0.15379879 0.5215357 0.005488841 0.034718126 -0.04489002
0.24543566 0.06017816 -0.31455523 -0.16619395 0.24470024 0.30965438 0.10717352 -0.038612224
0.13385464 -0.28742415 0.07019542 -0.12759455 -0.015005051 0.15276399 0.026441427 0.04333737
0.052216545 0.028535275 0.09891885 0.0024583112 0.0951757 -0.24072693 -0.087534964 0.07789169
0.2124802 0.014621092 -0.123830006 0.15683286 0.0028242427 0.27924755 -0.08509368 -0.24918957
-0.1722993 0.115372725 -0.12161481 -0.21151157 0.065239675 -0.14129229 -0.054047804 0.22769362
0.07049971 0.13019817 0.048480414 0.07312914 0.212797 0.09215915 0.16022588 -0.057078987
0.09482444 -0.16809027 -0.0942291 -0.025487455 -0.13636698 -0.32885468 6.192283e-05 -0.2254302
0.11363233 0.07930032 0.09000387 -0.13330713 -0.12398603 -0.14574772 -0.052700683 -0.31868017
-0.035461202 0.22042663 0.2307725 0.13145798 0.1908421 0.29556006 -9.718175e-06 -0.23667534
0.024453295 -0.1751885 -0.04495342 -0.25370133 0.006047373 0.22095333 -0.05365727 0.10879202
0.14670254 -0.13725197 0.013557033 0.0681484 0.15687947 -0.1836845 0.06284706 0.12906188
0.21616767 0.16611536 -0.100349165 0.012301162 -0.32488054 -0.049186595 -0.045094926 0.039970137
0.43258354 0.052968085 0.20008501 0.106784865 -0.084626004 -0.043984924 0.017098729 -0.38650617
0.2906828 0.32326487 -0.0052645043 0.21248528 -0.0067794602 0.05846103 0.09656846 -0.14516687
0.093398996 -0.14745887 0.16646433 0.047186583 -0.16355109 -0.22391462 -0.12376512 -0.083323576
0.026454106 -0.22972056 -0.19014454 -0.023027983 0.054649983 -0.22670646 -0.23536359 0.082272924
-0.14029509 0.28631756 -0.058389317 -0.10020624 -0.106801674 -0.09913546 -0.044784233 0.18518417
-0.06404017 -0.20387907 0.007066649 -0.0116058225 0.073196985 0.0008292471 -0.2037387 -0.027276827

lstm.bias_ih_l0 f4 [80]
00000000: 7b7b 833d 0258 a43e 769b b63e 456c 373c
00000010: 3894 433e 3107 e83d f7db f83c 68de 41bd
00000020: 63cf abbd 36ba 14be 1b5d 783e a6d1 983d
00000030: a4ab 6a3e 34ea 3a3c 0a82 333e f5f5 01be
00000040: 6a35 88bc b4a1 bdbd 7508 3c3e e5d2 efbb
00000050: 1dc8 583e 1550 a0be cec8 0f3d 477d 0f3b
00000060: 0212 e0bd 70ad 1d3c b61d c4bd fc7e ffbd
00000070: 03bb 9b3b e6c3 833d bac5 45be 2bb9 85bd
00000080: 9023 593b 428c fa3b 0d26 92bc 2248 bf3c
00000090: b27b 4d3a cbc3 1f3e 5667 273e b118 00be
000000a0: 3fa2 ae3d a563 27be 8132 383e aaf5 34be
000000b0: 0710 ebbd 1f95 2b3e 2b50 223e 29df ae3d
000000c0: 97d3 6e3e e5e1 473e 459e 383e 2c75 30be
000000d0: c37a 5cbd ddfd bebd fca5 00be daa4 84bd
000000e0: d030 193e 4a2a fe3d 8fd1 4c3d c90b 80be
000000f0: dbe5 c1bd 6949 cf3d 60d1 143e 1569 453e
00000100: 038c 18be 4721 e33c 3b0b 33bd 82d2 df3d
00000110: 468f 733e 6f3a f1bb 88df 48bd 3daf 313e
00000120: 0960 703d ff61 2b3e 0e91 9b3d 35ca 02bd
00000130: 9a64 9abc 114d 4e3e 98db e2bc def0 883e
0.064200364 0.32098395 0.35665482 0.011195247 0.1909951 0.11329497 0.030378325 -0.047331244
-0.08389165 -0.14524159 0.24254267 0.07461862 0.22917038 0.011408377 0.17530075 -0.12691481
-0.016627032 -0.09259358 0.18362601 -0.0073188418 0.21170087 -0.31311098 0.03510361 0.002189474
-0.10940935 0.00962387 -0.095759794 -0.12475392 0.004752518 0.06433849 -0.19313708 -0.065294586
0.003313277 0.0076461146 -0.01784041 0.023349825 0.00078385614 0.15602033 0.16348013 -0.12509419
0.0852704 -0.16346605 0.17988016 -0.17671838 -0.11477666 0.16756104 0.15850894 0.08538658
0.23322903 0.19519766 0.18029125 -0.17232198 -0.053828012 -0.09325764 -0.12563318 -0.064767554
0.14960027 0.1241041 0.05000454 -0.2500899 -0.094676696 0.10121424 0.14532995 0.19278367
-0.1489716 0.027725829 -0.043711882 0.10928823 0.23785123 -0.007361702 -0.0490413 0.17352004
0.058685336 0.16736601 0.07596026 -0.03193112 -0.018846799 0.20146586 -0.027692601 0.26746267

lstm.bias_hh_l0 f4 [80]
00000000: d9af a53d 02a7 6e3e 64b5 fe3e ef8d 2a3e
00000010: 871a 85bd 2762 663e 6bfc 043e 96ba bfbd
00000020: 6708 893d a126 00be a3a4 8d3e 1675 263e
00000030: a44f 21be 88ff 423d 309f 263e e8e8 5ebd
00000040: 1d62 523e 795c acbd 2183 003e 2862 7d3e
00000050: 1336 6bba 6987 02be b6b7 c33c 6c17 7cbe
00000060: 4147 ac3d 9520 123e 0259 a53d 4859 e2bd
00000070: ec8e fdbd 0124 873e 09a4 31be 9cfd ba3b
00000080: 06fe 433d 0b1d c53c e886 08be 4023 373d
00000090: 3fa1 ccbd 7725 393e 30f3 0fbe 8ac8 113d
000000a0: 07a7 493e 894e 0e3e c14a c4bc 5f6a b5bd
000000b0: 000c efbd 14b4 58bc 9247 1b3e 3d4f 00bd
000000c0: 85b2 bcbd 679d 933e 1f15 46be af0d ee3d
000000d0: 30cc ef3d 25db c53d 430d 2b3e 36cc f1bd
000000e0: 4a26 b33d 5277 5a3e 771e 443e a595 023e
000000f0: 4eb4 f53d af85 ab3e 799b c83e 1e39 0bbe
00000100: fb34 2d3e fbc4 81bd 54d6 d1bd a48a 213e
00000110: 8f8b 703c 5488 65bb a130 843e abc2 eb3d
00000120: 09d3 5f3d ece4 db3b a9f8 1c3e 2d6a 3d3e
00000130: 8177 ca3d ef74 04be ed88 82bc c170 c03d
0.08090181 0.23305896 0.49747765 0.16655706 -0.064992 0.2249838 0.12986915 -0.0936176
0.06691056 -0.12514736 0.2766467 0.16255602 -0.15753037 0.047606975 0.16271663 -0.054421335
0.2054524 -0.08416075 0.12550022 0.24744475 -0.0008972596 -0.12746967 0.023891311 -0.2461831
0.08412028 0.14270242 0.080736175 -0.11052185 -0.12380776 0.26394656 -0.1734773 0.005706502
0.047849678 0.0240617 -0.13332713 0.04471135 -0.09991693 0.18080698 -0.14057612 0.03559164
0.19692622 0.13897146 -0.023961427 -0.08858179 -0.11672211 -0.013226528 0.1516402 -0.031325568
-0.092137374 0.28831026 -0.19343995 0.11623704 0.117088675 0.09660939 0.16704278 -0.11806528
0.087475374 0.2133458 0.19152246 0.12752397 0.11997281 0.3350043 0.39181116 -0.13596007
0.16914742 -0.06336399 -0.10245958 0.15775543 0.014681711 -0.0035023885 0.2581835 0.11511739
0.05464462 0.006710639 0.15329231 0.18497534 0.09886075 -0.12935232 -0.015934432 0.09396506

head.weight f4 [2, 20]
00000000: a18b 2c3e 4a58 94be c1ec 64bf 9ac8 123e
00000010: 4fec 3abd a498 72be 883e b23c 90b5 abbd
00000020: 03bb 783e d193 1e3e bb67 813e 0b13 94bd
00000030: a41e aa3d 107b da3c 16d2 81be 79db 5f3d
00000040: f39c 833e 14cc 4b3e 58fa 013e 358d 463b
00000050: d5c1 2fbe d760 1c3f d03b b8be 44dc 0fbe
00000060: 277e b6bc c0eb 4abe 6125 563e d109 c5bd
00000070: 6a76 c43e 67d3 2fbe 83a8 b83d 29c8 043e
00000080: 3932 aabd 44d9 49be da88 f53e 5da8 3a3e
00000090: 78a4 063e e219 023e 1e37 263e 5021 e93e
0.16850139 -0.2897361 -0.8942376 0.14334336 -0.045635518 -0.2369104 0.021758333 -0.0838424
0.2429009 0.15486075 0.25274453 -0.07230195 0.083066255 0.026670009 -0.25355595 0.054652665
0.2570568 0.19902068 0.12693155 0.0030296568 -0.17163785 0.61085266 -0.35983133 -0.14048868
-0.022276951 -0.19816494 0.20912696 -0.09621013 0.38371593 -0.17170487 0.09016516 0.1296698
-0.083103605 -0.19711787 0.47955972 0.18228288 0.13148677 0.12705186 0.16231963 0.45533228

head.bias f4 [2]
00000000: bd91 f7bd 8a0c 373e
-0.12088344 0.17875877
