models/best_lstm_model.pt (torch, 12108 bytes, 6 tensors)

lstm.weight_ih_l0 f4 [80, 8]
000000 ad 71 80 bd 66 4c 0f 3e 09 77 64 3e cc a1 68 3d
       -0.06271682 0.13993987 0.22311033 0.056794927
000010 c8 7c 83 3e d3 e7 15 3d 04 70 6d bd 34 62 05 3e
       0.25681138 0.036598038 -0.057968155 0.13025743
000020 01 8f 81 3e 8b 13 d3 3d 65 9c 39 be fa ec 0f be
       0.25304416 0.10306462 -0.18126066 -0.14055243
000030 1b 3b ae bc f2 dc 08 3f 6f 12 84 3d bd 55 f9 bd
       -0.021268418 0.53462136 0.064488284 -0.121745564
000040 04 e5 1a 3e c6 8f 9d 3e ef 04 88 3e 1e cc b3 3e
       0.15126425 0.30773753 0.26566264 0.35116667
000050 fb 43 a6 3e b2 28 01 3f a1 96 5f 3e b8 f7 27 3e
       0.3247374 0.5045272 0.21834804 0.16403091
000060 f1 6b bb 3e c3 fb c4 3d 46 53 52 3e e4 f0 2b 3e
       0.3660579 0.09618332 0.20539579 0.16791111
000070 3c 35 6f 3e 69 30 10 3f a8 4c d6 3e e8 e1 c7 3d
       0.23360151 0.5632387 0.4185536 0.09759885
000080 8d a8 83 3e 67 83 a1 3d c5 10 4d bb 52 00 11 3e
       0.25714532 0.07886391 -0.0031290513 0.14160278
000090 38 99 ce 3d 45 3d af 3e c2 44 d1 bd 6c d3 58 3e
       0.10087818 0.34226432 -0.10218193 0.21174401
0000a0 6c 7b ce 3e 07 1b bc bc 4b 3b de be b2 c1 df bc
       0.40328538 -0.022962106 -0.43404612 -0.02731404
0000b0 bf 1f 3b 3e b3 c7 ad 3d 4f 16 1a 3e 74 2c c2 3d
       0.18273829 0.08485355 0.15047573 0.09481135
0000c0 d7 36 d1 3d ce 15 1f 3e d7 a0 43 3e 24 23 64 3e
       0.10215538 0.15535662 0.19104324 0.2227903
0000d0 44 55 d9 3e 8c 06 d9 3e 4a a3 2a 3e 16 60 d4 3e
       0.42447865 0.42387807 0.16663852 0.41479558
0000e0 4d f3 49 be b4 1a bb 3c 9e 88 e9 bd 17 4f d7 bd
       -0.19721718 0.022839881 -0.11403011 -0.10513132
0000f0 f0 9c fe bd 47 5c c1 3e 1b 5d 28 3e bd 2c 60 3e
       -0.12432277 0.37765715 0.16441767 0.21892066
000100 f1 9c da 3d 92 b5 91 3e 20 cf 29 be 22 94 94 3e
       0.106744654 0.2845884 -0.16582918 0.29019266
000110 e0 7d 43 3f 89 14 d1 3e 07 cb 63 3e 99 0c 38 3e
       0.76363945 0.4083598 0.22245418 0.17973556
000120 7d 9c a6 3e dc 6b b0 bd f4 af c9 3d fd 52 6f bd
       0.32541266 -0.086143225 0.098480135 -0.058428753
000130 45 16 ad bd 1f 24 23 3e b7 ca af 3d 97 b3 29 bd
       -0.08451513 0.15931748 0.08583587 -0.041431036
000140 5f 48 71 3e 12 d7 cc 3d 81 13 99 3e c4 d1 34 3c
       0.23562764 0.10001959 0.29897693 0.01103634
000150 13 73 5f 3e f2 27 7c 3d 38 f6 e8 3c a9 0f 37 bc
       0.21821241 0.061561532 0.028437719 -0.011173167
000160 68 08 9c bd 1a af 2b 3d 60 b9 85 3d 4f 98 21 3e
       -0.07618791 0.041915037 0.06529498 0.15780757
000170 56 7c b2 3d b9 95 1a bd f9 1b f1 3d 74 4a b6 3d
       0.087151214 -0.037740443 0.117729135 0.089009196
000180 9e 69 b5 3e f9 02 c4 bd 2d 06 96 3d dd 5e 72 3e
       0.35432142 -0.095708795 0.07325397 0.23669
000190 8c d7 b6 bd e8 a4 ce 3e c5 7c f7 3e fc 78 be 3e
       -0.08927831 0.40360188 0.4833738 0.3720168
0001a0 f8 04 ab bd 59 17 38 3d 8e f0 5e be bb 7b c7 bd
       -0.08350557 0.04494414 -0.21771452 -0.097403966
0001b0 64 4e 5d 3e ef 61 cb 3e 15 ea e0 3d 62 be 43 be
       0.21611935 0.39723155 0.109821476 -0.19115594
0001c0 bb e9 91 bd 9f 90 8a 3e 30 a0 07 3d ce 9f 81 3e
       -0.07124659 0.27063462 0.03311175 0.25317234
0001d0 16 18 80 3d 3e 1f bc 3d d8 8e 42 3e 0b 61 3b 3e
       0.06254594 0.091856465 0.18999803 0.18298738
0001e0 11 7e 43 bd 54 3a 3e 3e bf 1f be bc 97 25 4c 3b
       -0.04772765 0.18576938 -0.023208497 0.0031150335
0001f0 84 58 95 be 4d 9b 8d 3e fc ef 15 bd cc 3f e0 3c
       -0.29169095 0.27657548 -0.03660582 0.02737417
000200 ba d6 39 3e 2d 8a 34 bd d3 3a 4f 3d 52 09 7b bd
       0.18148318 -0.044077087 0.05059321 -0.061288185
000210 f9 4d fe bd 58 89 b5 3e 9a cf 80 3d 73 74 89 3c
       -0.12417216 0.35456347 0.06289597 0.01677916
000220 cb 31 0a 3e 6a 52 d2 3d 57 12 9d bd 36 5f 56 be
       0.13495557 0.102696255 -0.07669514 -0.20934758
000230 88 89 6e be bb 6f 69 be ac 9a 19 be 6e ff 01 3e
       -0.23294652 -0.22796528 -0.15000409 0.12695095
000240 34 50 fe 3c 9a 3a 55 3e 36 f6 38 3d b9 84 96 3e
       0.031044103 0.20823136 0.04515668 0.29398134
000250 13 bd 27 3d 7b 6e d5 3d 75 5e aa bd bf 4c 61 3c
       0.0409518 0.10421463 -0.083187975 0.013751208
000260 b8 4f c8 3c d3 45 21 be af 1e 45 bd 3e 23 79 3e
       0.024452075 -0.15749292 -0.048124965 0.2432985
000270 29 f6 8d 3c ae 8e 7f 3e 90 aa 92 3d 66 53 c5 bd
       0.017329292 0.24956772 0.071614385 -0.096350476
000280 83 66 1e be dc 95 c2 3c 08 49 28 be 45 d2 e9 bd
       -0.15468793 0.0237531 -0.16434109 -0.11417059
000290 bb 7c 09 3f f9 ba b1 bd ea 6b cd bd ba 93 28 bd
       0.5370595 -0.0867824 -0.100303486 -0.041156508
0002a0 98 be 81 3c 47 e4 c0 bc ab 15 c1 bd 5d 1d f9 bd
       0.015837952 -0.023546351 -0.09427961 -0.12163804
0002b0 2d e5 24 bd cf 04 cf 3e 11 85 f1 bd 28 6e 54 3e
       -0.04025762 0.40433356 -0.117929585 0.20745146
0002c0 aa 57 40 be 19 77 71 3d 08 76 2d 3e bc 24 c3 bd
       -0.18783441 0.05895147 0.16939557 -0.09528491
0002d0 ed 1a e9 3e 5e 4b b9 3e 54 80 67 bd d0 64 79 3c
       0.45528355 0.36190313 -0.056518868 0.0152217895
0002e0 66 7c 1b bd ac 23 fb be b9 20 89 be 6d 6f 03 bd
       -0.037960432 -0.49050653 -0.26782778 -0.032088686
0002f0 f3 a7 f3 bd ca 90 7c 3f 9a e7 9d 3d ac a0 38 be
       -0.11897268 0.9865843 0.0771019 -0.18030041
000300 00 05 3d 3c 17 3f aa 3a b8 63 cf 3d 85 d2 6e 3d
       0.011536837 0.0012988773 0.10126442 0.058306236
000310 b1 84 4b 3d 91 94 d3 3d 8c f7 2e be 0a 1b 9c bd
       0.04968709 0.10331071 -0.17086619 -0.07622345
000320 ed 71 b8 bd da 3f f5 3c d4 31 8b be 57 28 1d 3c
       -0.090061046 0.029937673 -0.27186453 0.009592137
000330 a8 74 43 be fe 61 12 3d 7e 4e 24 be 43 4a 96 3d
       -0.1908747 0.035737984 -0.16045567 0.07338383
000340 5b e2 ea bc fa de 8b be c1 e1 76 3d 42 df af be
       -0.028672388 -0.27318555 0.06027389 -0.3435002
000350 f7 e2 06 bd b4 4e 85 3c c2 3d 18 bd 34 d1 a2 be
       -0.032931294 0.01627288 -0.03716827 -0.31800234
000360 67 e6 fd 3d 6c 65 4b be c9 db 5f be 15 29 19 be
       0.123974614 -0.19862908 -0.21861185 -0.14957078
000370 96 81 38 3b f8 6b c8 3e ce 51 e2 bd 72 1c 16 be
       0.002815341 0.39144874 -0.11050759 -0.14659289
000380 e2 9c 13 3e 9a e3 ea bd c7 07 99 be a0 36 16 be
       0.14415315 -0.11469193 -0.29888746 -0.14669275
000390 1d c0 32 3f ff e5 f9 bd d6 26 cc be 18 d7 9d be
       0.6982439 -0.122020714 -0.3987338 -0.30828166
0003a0 e8 ab 5e be b4 ed cd ba b7 d6 0f bd 7b 45 56 be
       -0.21745265 -0.00157111 -0.035116877 -0.20924942
0003b0 81 af df 3b 3c 6c 86 bd e4 4f 33 be c2 1f 4b be
       0.0068263416 -0.06563613 -0.17510945 -0.19836333
0003c0 a0 d6 3f 3e 9e 1b 15 3e 42 ca b4 bd 18 f7 3c 3e
       0.18734217 0.14561316 -0.0882764 0.18453634
0003d0 6f 6c fd 3e a9 94 4b 3e 6b ab 13 be 13 23 1e 3e
       0.4949679 0.19880928 -0.1442086 0.15443067
0003e0 cf 6c 23 3d f5 7d 7d bd bc 7f 43 3d e9 7b 2e bd
       0.03989869 -0.0618877 0.04772924 -0.04259864
0003f0 32 ca 4c bd 66 02 88 3d 4d 58 0d be 3e e7 0d 3e
       -0.049997516 0.066410825 -0.13803215 0.13857743

lstm.weight_hh_l0 f4 [80, 20]
000000 67 93 b7 bd 89 64 81 bd f4 0c de bc b8 25 0f bc
       -0.08963662 -0.06318004 -0.027105786 -0.00873702
000010 eb b5 fd bd 31 59 b2 bd 98 4d b4 bd 57 f3 c4 bc
       -0.12388214 -0.08708418 -0.08803862 -0.024041815
000020 c5 78 ec 3d 80 ed 45 be a4 53 d4 bd 43 37 4e bd
       0.115464725 -0.1932888 -0.10367516 -0.05034567
000030 e0 72 fc 3d eb 69 b9 3d 20 3c 60 be 68 e6 23 3d
       0.12326598 0.090534054 -0.21897936 0.040014654
000040 65 f4 e6 3d a6 6f 22 3e f6 12 57 be 68 59 35 3e
       0.11277083 0.15862903 -0.21003327 0.17709887
000050 69 c7 ba 3d f1 f8 91 3d 91 4c 02 be 72 d8 3f 3c
       0.09120066 0.0712756 -0.1272452 0.011709319
000060 9b cc 9a 3d 48 f9 74 3d 55 49 10 be ac 5b 28 3e
       0.07558557 0.059808046 -0.14090474 0.1644122
000070 10 ef 82 bd 66 2f 15 be 75 05 b3 3d 5b ec 14 bc
       -0.06393254 -0.14568862 0.08741275 -0.009089555
000080 ce 81 a0 3e 5c 74 79 3e 75 99 85 bd b2 d6 56 be
       0.31349033 0.24360794 -0.0652341 -0.20980337
000090 a6 91 b1 3c 33 fc bf 3d 53 77 ae 3c 52 65 06 3d
       0.021675896 0.09374275 0.021297133 0.03281147
0000a0 b5 b3 b2 3d 49 0f 7d be 36 c2 b7 be 16 9a 28 bf
       0.08725683 -0.24712862 -0.3589036 -0.65860116
0000b0 33 02 8b be 51 a0 bc be 69 86 b5 3e f4 19 10 bf
       -0.27150115 -0.36841062 0.3545411 -0.562896
0000c0 06 32 56 be 20 af a7 3e 5d a4 67 be 20 73 c4 be
       -0.2091752 0.32750797 -0.22621293 -0.38369083
0000d0 c5 42 cd be 3a 91 ac 3e d4 b6 35 be 70 e1 0b 3f
       -0.40090004 0.3370455 -0.17745525 0.54640865
0000e0 83 27 88 3e f3 69 1e 3e f5 3a af be 96 20 fd bd
       0.26592645 0.15470104 -0.34224668 -0.12359731
0000f0 5a 8e 29 3f 8c 63 19 bf 32 af 45 be 08 56 f5 be
       0.66232836 -0.5991752 -0.19305113 -0.479172
000100 81 27 f3 be 08 be 99 be 77 8e 15 3f ab bc 0a bf
       -0.47491077 -0.30027795 0.5842051 -0.54194134
000110 c4 71 a2 be 45 a2 99 bd 53 77 50 bf 5d 1e 8c bc
       -0.3172742 -0.075016536 -0.81432074 -0.017104322
000120 03 5d 13 bf 79 1d f6 3d c0 a3 0c be a2 a5 46 3f
       -0.575638 0.1201734 -0.1373434 0.77596486
000130 d3 91 bd 3e 0d cf 2a 3e 86 93 9f be eb 25 54 be
       0.37025318 0.16680546 -0.3116724 -0.2071759
000140 ac 7c 26 3e e1 63 44 bd d6 40 88 be e2 24 9f be
       0.16258496 -0.047946814 -0.26611966 -0.31082827
000150 da 8f 1c be 6c 5f 01 be aa d6 59 3e 24 96 65 be
       -0.1528925 -0.12634057 0.21273294 -0.22420555
000160 93 cf 37 be e5 7d 97 bd 5e 33 45 bd 48 21 77 be
       -0.17950277 -0.07397059 -0.04814469 -0.2413379
000170 3e 2b 57 be 29 63 4d bd a6 74 12 be 19 94 1e bc
       -0.2101259 -0.050143395 -0.1430231 -0.009678864
000180 ce 5a ae 3e 81 d7 20 3e a2 38 ab 3d c8 5b a0 3d
       0.34053653 0.15707208 0.08360411 0.07830006
000190 c9 3b 77 3d af 39 c1 bb c5 06 6f be e3 f4 cb 3e
       0.06035975 -0.005896769 -0.23342426 0.3983527
0001a0 9e f3 3a 3e d5 f7 3b 3e 7c ed ba bd ae 21 65 bd
       0.18256995 0.18356259 -0.09127328 -0.055940323
0001b0 48 4e 28 be a3 ab ab 3c 80 75 fd bd 7d 2a 26 3e
       -0.16436112 0.020955866 -0.12375927 0.16227145
0001c0 61 46 8b be 05 97 15 3e ba 57 93 bd 68 6a e3 bd
       -0.27202132 0.1460839 -0.07194467 -0.1110428
0001d0 9b b0 7c 3e 78 52 c1 3d 78 39 d9 bd 16 94 4c be
       0.24676745 0.09439558 -0.106066644 -0.19978365
0001e0 69 47 05 3f aa 44 8a be de 68 b1 be 56 51 03 bf
       0.5206209 -0.27005512 -0.3465032 -0.51295984
0001f0 64 a0 90 be f7 0c 73 be 9d f1 46 3e be 44 0c bf
       -0.28247368 -0.23735414 0.19428106 -0.5479239
000200 36 77 9f be e5 15 f3 3e 60 43 24 bf 20 5b ec be
       -0.31145638 0.47477642 -0.64165306 -0.46163273
000210 c4 fe f4 be 94 2e 91 3e 74 d3 a6 be 02 4c 19 3f
       -0.4785062 0.2835585 -0.325832 0.59881604
000220 a4 a7 1d 3f 96 c1 c6 3e cd 89 06 bf 20 bc 9f be
       0.61583924 0.3881957 -0.5255402 -0.31198215
000230 b8 08 82 3e ac 97 a9 bd a0 18 71 3d 90 b0 c3 3d
       0.25397277 -0.08280882 0.058861375 0.09555161
000240 5d 28 03 be 6d bf f9 3c b2 f6 b5 bd 9f 6d 63 be
       -0.12808366 0.030486787 -0.08884944 -0.22209786
000250 8b bf 3b be fe b1 8c bd 93 4e 88 bc a7 53 73 bd
       -0.18334787 -0.06869887 -0.01663903 -0.05940595
000260 8b 52 aa bd 2b 6e e5 3d 49 b4 17 bd 43 a6 61 3e
       -0.08316525 0.112026535 -0.037037168 0.2203608
000270 45 6b 26 be 7a 1f 60 be 51 cb 3e be d7 19 12 be
       -0.16251858 -0.21887007 -0.18632247 -0.1426767
000280 1a f5 28 3f d7 c0 8b be b5 54 5f be e6 25 af be
       0.65998995 -0.27295563 -0.21809657 -0.34208602
000290 fd 7d 09 bf 0c 2a 7d bd 38 50 9e 3d 97 d3 4a bf
       -0.5370787 -0.061807677 0.07730144 -0.7922911
0002a0 ab c8 80 be e7 54 93 3d 54 9c 19 bf e3 15 bd be
       -0.25153098 0.07193928 -0.6000416 -0.3693076
0002b0 e8 e3 0a bf be 50 44 3e 32 43 2c be fe 21 9d 3e
       -0.5425401 0.19171426 -0.16822508 0.30689996
0002c0 64 45 00 3f 42 f2 82 3e 91 97 a3 be 51 9a 16 be
       0.5010588 0.25575453 -0.31951573 -0.14707305
0002d0 85 f2 62 3e eb ac 5b 3d 11 cf aa be ce 87 1b be
       0.22162826 0.053631704 -0.33361104 -0.15188524
0002e0 41 51 50 3e 85 8f a4 bc 83 5f c8 be 64 26 44 bd
       0.20343496 -0.020087967 -0.3913537 -0.047888175
0002f0 a2 8a b3 be c0 e4 48 be ea 1c 6d be f5 05 49 be
       -0.35066706 -0.19618511 -0.23155561 -0.19631179
000300 53 de 14 3e c1 a1 e6 bd 58 e2 74 be 47 cf 32 be
       0.14537935 -0.11261321 -0.23914468 -0.17461883
000310 20 1f 07 3e e4 db c6 3d 1d f7 6c be e0 35 46 be
       0.13195467 0.097099096 -0.23141141 -0.19356489
000320 b7 e0 33 3e de 02 f3 3d e3 71 80 3c 2b 5e c6 bd
       0.1756619 0.11865781 0.015679305 -0.0968593
000330 a8 dd 45 3e 94 20 06 bd 0e cd 31 3e 05 88 d7 bd
       0.19322836 -0.032745913 0.17363378 -0.105239905
000340 46 7b 27 3c e6 ed 2d be 48 f7 1d be 55 c2 94 bd
       0.010222262 -0.16985282 -0.15426362 -0.072636284
000350 68 10 28 be 35 17 51 3d d9 bd e7 3c 56 49 5b 3d
       -0.16412508 0.051047523 0.028288769 0.053536735
000360 a3 da 26 3e b1 34 7d 3e 41 61 83 3d 11 2d 4c 3e
       0.16294341 0.24727131 0.06415034 0.19939066
000370 75 f9 24 be 7a 72 02 be 5d 98 79 bd 76 f2 25 be
       -0.16110785 -0.12738982 -0.06093632 -0.16205773
000380 cb 2b 50 3d 27 b9 7a be de 63 84 3d 09 c5 81 bd
       0.050823014 -0.24484693 0.06464361 -0.063364096
000390 2b 66 cf bd b1 d2 90 3d e4 97 0f be 09 e2 38 3d
       -0.10126909 0.07071436 -0.14022785 0.04513744
0003a0 95 16 80 bd e0 47 4a 3e 72 df 98 bd 35 f6 b0 3c
       -0.06254307 0.1975398 -0.07464494 0.021601776
0003b0 a2 fc 00 bd f1 d1 70 3d 3d 17 31 3e e8 2e d6 bd
       -0.03149093 0.058793966 0.17294021 -0.104581654
0003c0 a5 9a 75 3e f0 0a 9d be c2 30 06 bf d4 88 48 bf
       0.23984773 -0.30672407 -0.5241815 -0.78333783
0003d0 8a 03 8f be fd 64 8d be ed 7f 20 3f df c0 36 bf
       -0.27932388 -0.2761611 0.626952 -0.7138805
0003e0 19 09 00 bf 26 42 15 bc 78 36 51 be cf 56 9e be
       -0.5001388 -0.009110009 -0.20430934 -0.30925605
0003f0 87 fa dd bd 34 5b b7 3e f7 1d 55 be 3b b5 04 3f
       -0.108388 0.3581177 -0.20812212 0.51839036

lstm.bias_ih_l0 f4 [80]
000000 d9 b9 24 3e 71 9f 11 bd 7d 38 88 3d 38 9b bc 3e
       0.1608652 -0.035552446 0.06651399 0.36837173
000010 5b 16 a3 3e 7a ae b7 bc ac 7b 8f 3e 19 40 cc bb
       0.31852993 -0.022422064 0.28024042 -0.006233227
000020 35 9f 26 3e c1 38 6f 3e 26 ef 22 3e 29 e0 2a be
       0.1627167 0.23361494 0.1591154 -0.16687073
000030 ca 22 b4 3e f1 5d 31 3e 24 be 8e 3d 3e 7b 04 be
       0.35182792 0.17320992 0.0696986 -0.12937638
000040 69 e8 23 3e 83 cd 9f bd 18 fd 60 3e 53 8b 65 3d
       0.16006626 -0.0780287 0.21971548 0.056041073
000050 6a 21 fb bd 5c b5 23 3e 06 90 8e bd 26 da 88 be
       -0.122622326 0.15987152 -0.06961064 -0.26728934
000060 ef 2f 1c 3e 79 07 46 be a6 51 91 be cb 54 70 3d
       0.1525266 -0.19338788 -0.28382605 0.058674615
000070 5a 83 9b be c0 ef 75 bd 68 5d 0b bd 2b e1 00 3e
       -0.3037365 -0.060043097 -0.034024626 0.12585895
000080 fc 18 98 be 9b 12 36 3d 17 6b 6b be d2 10 18 be
       -0.29706562 0.044451337 -0.2299007 -0.14850166
000090 b4 63 19 3e 29 c6 9e 3c 0e e6 5d 3c d5 58 54 be
       0.1497944 0.0193816 0.013543619 -0.20737012
0000a0 59 99 7c 3d f5 c7 a8 3d 9d 30 45 3d eb 6e 29 3d
       0.06166968 0.08241264 0.048142064 0.041365545
0000b0 05 c1 07 3e 07 06 9a 3d 13 93 ce 3c f7 65 5f be
       0.13257225 0.07520681 0.025216615 -0.2181624
0000c0 65 7a bb 3d db 92 d5 3d 77 f5 b7 bd 26 e2 4e be
       0.09154204 0.10428401 -0.089823656 -0.20203456
0000d0 92 5d eb 3d 94 a0 7d 3d 23 77 5d be ba c5 4e 3e
       0.114924565 0.061920717 -0.21627478 0.20192614
0000e0 9c 6b ba 3d a9 42 c3 3d a1 72 01 be 42 ca d1 bd
       0.09102556 0.09534199 -0.12641384 -0.10243656
0000f0 c5 8e 01 3d a1 17 31 3d 23 e7 2f 3e f0 71 6e 3e
       0.031630296 0.043235425 0.17178015 0.23285651
000100 9e 62 38 3e 5a 03 25 3e e4 02 90 3e fb 50 8d 3c
       0.1800637 0.1611456 0.28127205 0.017250529
000110 44 0e 05 3e cd 4c 79 3c c8 c3 0e 3d 0a 26 f7 bd
       0.12993723 0.015216065 0.03485468 -0.12067802
000120 d3 c1 9f 3d 17 fa 55 3e a9 06 71 3d 13 79 34 bd
       0.07800641 0.20896183 0.058844242 -0.044060778
000130 18 11 fa bd 58 70 ca 3c 31 f1 75 bd 59 c1 6f bd
       -0.122102916 0.024711773 -0.06004447 -0.058534

lstm.bias_hh_l0 f4 [80]
000000 1e 64 d8 bd 56 5f b1 bd e4 25 4e 3e dc 21 49 3e
       -0.10565971 -0.08660762 0.20131642 0.19641823
000010 ea 9f 44 3e e4 0d 92 bd a0 ad b6 3e 81 40 06 be
       0.19201627 -0.07131556 0.3567934 -0.13110544
000020 05 76 63 3e 1c 82 dc bd 9f 84 07 be 69 61 56 3e
       0.2221299 -0.10767004 -0.13234185 0.20935597
000030 c1 c3 b5 3e e7 5b cd 3d 71 c5 6d 3e 2b c2 fc bc
       0.3550091 0.100272946 0.23219849 -0.030854305
000040 50 a0 83 bd 16 b5 e4 3c 2a 80 19 be cc 89 df bc
       -0.064270616 0.02791838 -0.14990297 -0.027287386
000050 cd 24 15 be 0e e2 2d 3e 94 e3 3a be 8f 80 1d be
       -0.1456482 0.16980764 -0.18250877 -0.15381072
000060 59 b9 31 be 8d d8 4e be 84 72 36 be 6d b6 a9 bd
       -0.17355861 -0.20199795 -0.17817122 -0.08286748
000070 12 d0 9b be d9 70 f7 3d 72 cf 13 be 87 fe 3c 3e
       -0.30432183 0.12082071 -0.14434603 0.1845647
000080 36 35 38 3d 40 14 33 3d 5e 88 dd 3d 3e af 09 3d
       0.04497262 0.043720484 0.108170256 0.03361439
000090 af 40 dd bb 18 ad e3 3d 08 df 29 be 89 8d 01 3e
       -0.0067520957 0.111169994 -0.16588986 0.12651648
0000a0 86 44 ea bb 4f 17 81 be 57 b4 9f bd fa a6 b2 bb
       -0.007149282 -0.25213096 -0.07798069 -0.005452034
0000b0 5f f6 eb bd 46 cb b0 bd 4f de 8c 3d 95 ca 6f be
       -0.11521601 -0.08632521 0.068783395 -0.23417123
0000c0 18 7e 92 bd 15 5b 13 3e 7e 50 d7 3d e2 e2 25 be
       -0.07152957 0.14390214 0.105133995 -0.1619983
0000d0 d6 08 7e be 4e c7 0a bd d4 f1 48 3e e0 e5 de bb
       -0.24808058 -0.033881478 0.196235 -0.0068023056
0000e0 57 a9 22 3e 90 f5 d4 bd 3d b8 38 bd 0c 7d 45 be
       0.1588491 -0.103984 -0.04509758 -0.19285983
0000f0 33 bb a9 bd c9 d3 80 3c 02 74 a4 3e 54 87 bc 3e
       -0.082876585 0.015725987 0.32119757 0.36821997
000100 c1 e1 23 3e e4 8c f6 3b 10 af c4 3e 74 fc e4 3d
       0.16004087 0.0075241197 0.38414812 0.11180964
000110 29 38 87 3d 8e 4e 16 be dd 0a 38 be 69 72 65 bd
       0.066025086 -0.14678404 -0.17972894 -0.056017313
000120 1c fa ba 3e 39 53 34 3d 91 e5 14 bd 4e a7 8e bc
       0.36518943 0.04402468 -0.036351744 -0.017413761
000130 42 ab b8 bd 72 1d eb bd cd 25 fc bd 62 bd 03 3e
       -0.0901704 -0.114802256 -0.123118974 0.12865213

head.weight f4 [2, 20]
000000 fd 7d 33 3e 59 b8 31 3d f3 5e 15 bf 8e ce 23 be
       0.1752853 0.0433887 -0.58348006 -0.15996763
000010 9f b3 90 be d2 5a 67 be 74 3e 7e bc c2 d6 06 3e
       -0.2826204 -0.22593239 -0.01551782 0.13167861
000020 fb ab 8c be 4c 97 2b be 72 fc 51 be a9 92 32 3d
       -0.2747496 -0.16756934 -0.20506456 0.043596897
000030 2a 2d fe 3e d6 e7 43 3e 46 f5 77 be ef 22 ec bd
       0.49643832 0.19131407 -0.24214658 -0.115301006
000040 a6 46 4d 3c 02 a6 c8 bd 2e a9 a0 be 1b 67 00 3c
       0.012529051 -0.097972885 -0.31379074 0.007837082
000050 9e 82 4c bd c1 d8 91 be 09 53 af bd 11 17 e4 be
       -0.049929254 -0.28485683 -0.085607596 -0.44548848
000060 d2 44 02 be af 61 a0 bc d2 14 36 3f 0d 7f 73 be
       -0.12721565 -0.01957783 0.7112552 -0.23778935
000070 b4 0b 45 3e 20 f1 74 3b 29 eb 64 bd bb 15 54 3e
       0.19242746 0.0037375167 -0.05588833 0.20711415
000080 94 cd 2e be 73 a7 50 3e d9 c9 ab 3d 61 83 75 3e
       -0.1707061 0.20376377 0.08388109 0.23975898
000090 76 45 f6 3d d4 5e 25 be 54 db 2e bd 16 4f fa bd
       0.12024967 -0.16149455 -0.042689636 -0.12222116

head.bias f4 [2]
000000 30 32 44 3e ad 72 c7 bc
       0.1915977 -0.024346674
